{"modelTopology":{"class_name":"Model","config":{"name":"MobilenetV3Large","layers":[{"name":"input1","class_name":"InputLayer","config":{"batch_input_shape":[null,98,112,3],"dtype":"float32","sparse":false,"name":"input1"},"inbound_nodes":[]},{"name":"Conv","class_name":"Conv2D","config":{"filters":16,"kernel_initializer":{"class_name":"VarianceScaling","config":{"scale":1,"mode":"fan_avg","distribution":"normal","seed":null}},"kernel_regularizer":null,"kernel_constraint":null,"kernel_size":[3,3],"strides":[2,2],"padding":"same","data_format":"channels_last","dilation_rate":[1,1],"activation":"linear","use_bias":false,"bias_initializer":{"class_name":"Zeros","config":{}},"bias_regularizer":null,"activity_regularizer":null,"bias_constraint":null,"name":"Conv","trainable":true},"inbound_nodes":[[["input1",0,0,{}]]]},{"name":"Conv-BatchNorm","class_name":"BatchNormalization","config":{"axis":-1,"momentum":0.99,"epsilon":0.001,"center":true,"scale":true,"beta_initializer":{"class_name":"Zeros","config":{}},"gamma_initializer":{"class_name":"Ones","config":{}},"moving_mean_initializer":{"class_name":"Zeros","config":{}},"moving_variance_initializer":{"class_name":"Ones","config":{}},"beta_regularizer":null,"gamma_regularizer":null,"beta_constraint":null,"gamma_constraint":null,"name":"Conv-BatchNorm","trainable":true},"inbound_nodes":[[["Conv",0,0,{}]]]},{"name":"Conv-HardSwish","class_name":null,"config":{"name":"Conv-HardSwish","trainable":true},"inbound_nodes":[[["Conv-BatchNorm",0,0,{}]]]},{"name":"expanded_conv-depthwise","class_name":"DepthwiseConv2D","config":{"kernel_size":[3,3],"strides":[1,1],"padding":"same","data_format":"channels_last","dilation_rate":[1,1],"activation":"linear","use_bias":false,"bias_initializer":{"class_name":"Zeros","config":{}},"bias_regularizer":null,"activity_regularizer":null,"bias_constraint":null,"name":"expanded_conv-depthwise","trainable":true,"depth_multiplier":1,"depthwise_initializer":{"class_name":"VarianceScaling","config":{"scale":1,"mode":"fan_avg","distribution":"normal","seed":null}},"depthwise_regularizer":null,"depthwise_constraint":null},"inbound_nodes":[[["Conv-HardSwish",0,0,{}]]]},{"name":"expanded_conv-depthwise-BatchNorm","class_name":"BatchNormalization","config":{"axis":-1,"momentum":0.99,"epsilon":0.001,"center":true,"scale":true,"beta_initializer":{"class_name":"Zeros","config":{}},"gamma_initializer":{"class_name":"Ones","config":{}},"moving_mean_initializer":{"class_name":"Zeros","config":{}},"moving_variance_initializer":{"class_name":"Ones","config":{}},"beta_regularizer":null,"gamma_regularizer":null,"beta_constraint":null,"gamma_constraint":null,"name":"expanded_conv-depthwise-BatchNorm","trainable":true},"inbound_nodes":[[["expanded_conv-depthwise",0,0,{}]]]},{"name":"expanded_conv-depthwise-Action2","class_name":null,"config":{"name":"expanded_conv-depthwise-Action2","trainable":true},"inbound_nodes":[[["expanded_conv-depthwise-BatchNorm",0,0,{}]]]},{"name":"expanded_conv-project","class_name":"Conv2D","config":{"filters":16,"kernel_initializer":{"class_name":"VarianceScaling","config":{"scale":1,"mode":"fan_avg","distribution":"normal","seed":null}},"kernel_regularizer":null,"kernel_constraint":null,"kernel_size":[1,1],"strides":[1,1],"padding":"same","data_format":"channels_last","dilation_rate":[1,1],"activation":"linear","use_bias":false,"bias_initializer":{"class_name":"Zeros","config":{}},"bias_regularizer":null,"activity_regularizer":null,"bias_constraint":null,"name":"expanded_conv-project","trainable":true},"inbound_nodes":[[["expanded_conv-depthwise-Action2",0,0,{}]]]},{"name":"expanded_conv-project-BatchNorm","class_name":"BatchNormalization","config":{"axis":-1,"momentum":0.99,"epsilon":0.001,"center":true,"scale":true,"beta_initializer":{"class_name":"Zeros","config":{}},"gamma_initializer":{"class_name":"Ones","config":{}},"moving_mean_initializer":{"class_name":"Zeros","config":{}},"moving_variance_initializer":{"class_name":"Ones","config":{}},"beta_regularizer":null,"gamma_regularizer":null,"beta_constraint":null,"gamma_constraint":null,"name":"expanded_conv-project-BatchNorm","trainable":true},"inbound_nodes":[[["expanded_conv-project",0,0,{}]]]},{"name":"expanded_conv-Add","class_name":"Add","config":{"name":"expanded_conv-Add","trainable":true},"inbound_nodes":[[["expanded_conv-project-BatchNorm",0,0,{}],["Conv-HardSwish",0,0,{}]]]},{"name":"expanded_conv_1-expand","class_name":"Conv2D","config":{"filters":64,"kernel_initializer":{"class_name":"VarianceScaling","config":{"scale":1,"mode":"fan_avg","distribution":"normal","seed":null}},"kernel_regularizer":{"class_name":"L1L2","config":{"l1":0,"l2":0.01}},"kernel_constraint":null,"kernel_size":[1,1],"strides":[1,1],"padding":"same","data_format":"channels_last","dilation_rate":[1,1],"activation":"linear","use_bias":false,"bias_initializer":{"class_name":"Zeros","config":{}},"bias_regularizer":null,"activity_regularizer":null,"bias_constraint":null,"name":"expanded_conv_1-expand","trainable":true},"inbound_nodes":[[["expanded_conv-Add",0,0,{}]]]},{"name":"expanded_conv_1-expand-BatchNorm","class_name":"BatchNormalization","config":{"axis":-1,"momentum":0.99,"epsilon":0.001,"center":true,"scale":true,"beta_initializer":{"class_name":"Zeros","config":{}},"gamma_initializer":{"class_name":"Ones","config":{}},"moving_mean_initializer":{"class_name":"Zeros","config":{}},"moving_variance_initializer":{"class_name":"Ones","config":{}},"beta_regularizer":null,"gamma_regularizer":null,"beta_constraint":null,"gamma_constraint":null,"name":"expanded_conv_1-expand-BatchNorm","trainable":true},"inbound_nodes":[[["expanded_conv_1-expand",0,0,{}]]]},{"name":"expanded_conv_1-depthwise-Action1","class_name":null,"config":{"name":"expanded_conv_1-depthwise-Action1","trainable":true},"inbound_nodes":[[["expanded_conv_1-expand-BatchNorm",0,0,{}]]]},{"name":"expanded_conv_1-depthwise-pad","class_name":"ZeroPadding2D","config":{"padding":[[1.5,1.5],[0.5,1.5]],"data_format":"channels_last","name":"expanded_conv_1-depthwise-pad","trainable":true},"inbound_nodes":[[["expanded_conv_1-depthwise-Action1",0,0,{}]]]},{"name":"expanded_conv_1-depthwise","class_name":"DepthwiseConv2D","config":{"kernel_size":[3,3],"strides":[2,2],"padding":"same","data_format":"channels_last","dilation_rate":[1,1],"activation":"linear","use_bias":false,"bias_initializer":{"class_name":"Zeros","config":{}},"bias_regularizer":null,"activity_regularizer":null,"bias_constraint":null,"name":"expanded_conv_1-depthwise","trainable":true,"depth_multiplier":1,"depthwise_initializer":{"class_name":"VarianceScaling","config":{"scale":1,"mode":"fan_avg","distribution":"normal","seed":null}},"depthwise_regularizer":null,"depthwise_constraint":null},"inbound_nodes":[[["expanded_conv_1-depthwise-pad",0,0,{}]]]},{"name":"expanded_conv_1-depthwise-BatchNorm","class_name":"BatchNormalization","config":{"axis":-1,"momentum":0.99,"epsilon":0.001,"center":true,"scale":true,"beta_initializer":{"class_name":"Zeros","config":{}},"gamma_initializer":{"class_name":"Ones","config":{}},"moving_mean_initializer":{"class_name":"Zeros","config":{}},"moving_variance_initializer":{"class_name":"Ones","config":{}},"beta_regularizer":null,"gamma_regularizer":null,"beta_constraint":null,"gamma_constraint":null,"name":"expanded_conv_1-depthwise-BatchNorm","trainable":true},"inbound_nodes":[[["expanded_conv_1-depthwise",0,0,{}]]]},{"name":"expanded_conv_1-depthwise-Action2","class_name":null,"config":{"name":"expanded_conv_1-depthwise-Action2","trainable":true},"inbound_nodes":[[["expanded_conv_1-depthwise-BatchNorm",0,0,{}]]]},{"name":"expanded_conv_1-project","class_name":"Conv2D","config":{"filters":24,"kernel_initializer":{"class_name":"VarianceScaling","config":{"scale":1,"mode":"fan_avg","distribution":"normal","seed":null}},"kernel_regularizer":null,"kernel_constraint":null,"kernel_size":[1,1],"strides":[1,1],"padding":"same","data_format":"channels_last","dilation_rate":[1,1],"activation":"linear","use_bias":false,"bias_initializer":{"class_name":"Zeros","config":{}},"bias_regularizer":null,"activity_regularizer":null,"bias_constraint":null,"name":"expanded_conv_1-project","trainable":true},"inbound_nodes":[[["expanded_conv_1-depthwise-Action2",0,0,{}]]]},{"name":"expanded_conv_1-project-BatchNorm","class_name":"BatchNormalization","config":{"axis":-1,"momentum":0.99,"epsilon":0.001,"center":true,"scale":true,"beta_initializer":{"class_name":"Zeros","config":{}},"gamma_initializer":{"class_name":"Ones","config":{}},"moving_mean_initializer":{"class_name":"Zeros","config":{}},"moving_variance_initializer":{"class_name":"Ones","config":{}},"beta_regularizer":null,"gamma_regularizer":null,"beta_constraint":null,"gamma_constraint":null,"name":"expanded_conv_1-project-BatchNorm","trainable":true},"inbound_nodes":[[["expanded_conv_1-project",0,0,{}]]]},{"name":"expanded_conv_2-expand","class_name":"Conv2D","config":{"filters":72,"kernel_initializer":{"class_name":"VarianceScaling","config":{"scale":1,"mode":"fan_avg","distribution":"normal","seed":null}},"kernel_regularizer":{"class_name":"L1L2","config":{"l1":0,"l2":0.01}},"kernel_constraint":null,"kernel_size":[1,1],"strides":[1,1],"padding":"same","data_format":"channels_last","dilation_rate":[1,1],"activation":"linear","use_bias":false,"bias_initializer":{"class_name":"Zeros","config":{}},"bias_regularizer":null,"activity_regularizer":null,"bias_constraint":null,"name":"expanded_conv_2-expand","trainable":true},"inbound_nodes":[[["expanded_conv_1-project-BatchNorm",0,0,{}]]]},{"name":"expanded_conv_2-expand-BatchNorm","class_name":"BatchNormalization","config":{"axis":-1,"momentum":0.99,"epsilon":0.001,"center":true,"scale":true,"beta_initializer":{"class_name":"Zeros","config":{}},"gamma_initializer":{"class_name":"Ones","config":{}},"moving_mean_initializer":{"class_name":"Zeros","config":{}},"moving_variance_initializer":{"class_name":"Ones","config":{}},"beta_regularizer":null,"gamma_regularizer":null,"beta_constraint":null,"gamma_constraint":null,"name":"expanded_conv_2-expand-BatchNorm","trainable":true},"inbound_nodes":[[["expanded_conv_2-expand",0,0,{}]]]},{"name":"expanded_conv_2-depthwise-Action1","class_name":null,"config":{"name":"expanded_conv_2-depthwise-Action1","trainable":true},"inbound_nodes":[[["expanded_conv_2-expand-BatchNorm",0,0,{}]]]},{"name":"expanded_conv_2-depthwise","class_name":"DepthwiseConv2D","config":{"kernel_size":[3,3],"strides":[1,1],"padding":"same","data_format":"channels_last","dilation_rate":[1,1],"activation":"linear","use_bias":false,"bias_initializer":{"class_name":"Zeros","config":{}},"bias_regularizer":null,"activity_regularizer":null,"bias_constraint":null,"name":"expanded_conv_2-depthwise","trainable":true,"depth_multiplier":1,"depthwise_initializer":{"class_name":"VarianceScaling","config":{"scale":1,"mode":"fan_avg","distribution":"normal","seed":null}},"depthwise_regularizer":null,"depthwise_constraint":null},"inbound_nodes":[[["expanded_conv_2-depthwise-Action1",0,0,{}]]]},{"name":"expanded_conv_2-depthwise-BatchNorm","class_name":"BatchNormalization","config":{"axis":-1,"momentum":0.99,"epsilon":0.001,"center":true,"scale":true,"beta_initializer":{"class_name":"Zeros","config":{}},"gamma_initializer":{"class_name":"Ones","config":{}},"moving_mean_initializer":{"class_name":"Zeros","config":{}},"moving_variance_initializer":{"class_name":"Ones","config":{}},"beta_regularizer":null,"gamma_regularizer":null,"beta_constraint":null,"gamma_constraint":null,"name":"expanded_conv_2-depthwise-BatchNorm","trainable":true},"inbound_nodes":[[["expanded_conv_2-depthwise",0,0,{}]]]},{"name":"expanded_conv_2-depthwise-Action2","class_name":null,"config":{"name":"expanded_conv_2-depthwise-Action2","trainable":true},"inbound_nodes":[[["expanded_conv_2-depthwise-BatchNorm",0,0,{}]]]},{"name":"expanded_conv_2-project","class_name":"Conv2D","config":{"filters":24,"kernel_initializer":{"class_name":"VarianceScaling","config":{"scale":1,"mode":"fan_avg","distribution":"normal","seed":null}},"kernel_regularizer":null,"kernel_constraint":null,"kernel_size":[1,1],"strides":[1,1],"padding":"same","data_format":"channels_last","dilation_rate":[1,1],"activation":"linear","use_bias":false,"bias_initializer":{"class_name":"Zeros","config":{}},"bias_regularizer":null,"activity_regularizer":null,"bias_constraint":null,"name":"expanded_conv_2-project","trainable":true},"inbound_nodes":[[["expanded_conv_2-depthwise-Action2",0,0,{}]]]},{"name":"expanded_conv_2-project-BatchNorm","class_name":"BatchNormalization","config":{"axis":-1,"momentum":0.99,"epsilon":0.001,"center":true,"scale":true,"beta_initializer":{"class_name":"Zeros","config":{}},"gamma_initializer":{"class_name":"Ones","config":{}},"moving_mean_initializer":{"class_name":"Zeros","config":{}},"moving_variance_initializer":{"class_name":"Ones","config":{}},"beta_regularizer":null,"gamma_regularizer":null,"beta_constraint":null,"gamma_constraint":null,"name":"expanded_conv_2-project-BatchNorm","trainable":true},"inbound_nodes":[[["expanded_conv_2-project",0,0,{}]]]},{"name":"expanded_conv_2-Add","class_name":"Add","config":{"name":"expanded_conv_2-Add","trainable":true},"inbound_nodes":[[["expanded_conv_2-project-BatchNorm",0,0,{}],["expanded_conv_1-project-BatchNorm",0,0,{}]]]},{"name":"expanded_conv_3-expand","class_name":"Conv2D","config":{"filters":72,"kernel_initializer":{"class_name":"VarianceScaling","config":{"scale":1,"mode":"fan_avg","distribution":"normal","seed":null}},"kernel_regularizer":{"class_name":"L1L2","config":{"l1":0,"l2":0.01}},"kernel_constraint":null,"kernel_size":[1,1],"strides":[1,1],"padding":"same","data_format":"channels_last","dilation_rate":[1,1],"activation":"linear","use_bias":false,"bias_initializer":{"class_name":"Zeros","config":{}},"bias_regularizer":null,"activity_regularizer":null,"bias_constraint":null,"name":"expanded_conv_3-expand","trainable":true},"inbound_nodes":[[["expanded_conv_2-Add",0,0,{}]]]},{"name":"expanded_conv_3-expand-BatchNorm","class_name":"BatchNormalization","config":{"axis":-1,"momentum":0.99,"epsilon":0.001,"center":true,"scale":true,"beta_initializer":{"class_name":"Zeros","config":{}},"gamma_initializer":{"class_name":"Ones","config":{}},"moving_mean_initializer":{"class_name":"Zeros","config":{}},"moving_variance_initializer":{"class_name":"Ones","config":{}},"beta_regularizer":null,"gamma_regularizer":null,"beta_constraint":null,"gamma_constraint":null,"name":"expanded_conv_3-expand-BatchNorm","trainable":true},"inbound_nodes":[[["expanded_conv_3-expand",0,0,{}]]]},{"name":"expanded_conv_3-depthwise-Action1","class_name":null,"config":{"name":"expanded_conv_3-depthwise-Action1","trainable":true},"inbound_nodes":[[["expanded_conv_3-expand-BatchNorm",0,0,{}]]]},{"name":"expanded_conv_3-depthwise-pad","class_name":"ZeroPadding2D","config":{"padding":[[1.5,2.5],[2.5,2.5]],"data_format":"channels_last","name":"expanded_conv_3-depthwise-pad","trainable":true},"inbound_nodes":[[["expanded_conv_3-depthwise-Action1",0,0,{}]]]},{"name":"expanded_conv_3-depthwise","class_name":"DepthwiseConv2D","config":{"kernel_size":[5,5],"strides":[2,2],"padding":"same","data_format":"channels_last","dilation_rate":[1,1],"activation":"linear","use_bias":false,"bias_initializer":{"class_name":"Zeros","config":{}},"bias_regularizer":null,"activity_regularizer":null,"bias_constraint":null,"name":"expanded_conv_3-depthwise","trainable":true,"depth_multiplier":1,"depthwise_initializer":{"class_name":"VarianceScaling","config":{"scale":1,"mode":"fan_avg","distribution":"normal","seed":null}},"depthwise_regularizer":null,"depthwise_constraint":null},"inbound_nodes":[[["expanded_conv_3-depthwise-pad",0,0,{}]]]},{"name":"expanded_conv_3-depthwise-BatchNorm","class_name":"BatchNormalization","config":{"axis":-1,"momentum":0.99,"epsilon":0.001,"center":true,"scale":true,"beta_initializer":{"class_name":"Zeros","config":{}},"gamma_initializer":{"class_name":"Ones","config":{}},"moving_mean_initializer":{"class_name":"Zeros","config":{}},"moving_variance_initializer":{"class_name":"Ones","config":{}},"beta_regularizer":null,"gamma_regularizer":null,"beta_constraint":null,"gamma_constraint":null,"name":"expanded_conv_3-depthwise-BatchNorm","trainable":true},"inbound_nodes":[[["expanded_conv_3-depthwise",0,0,{}]]]},{"name":"expanded_conv_3-depthwise-Action2","class_name":null,"config":{"name":"expanded_conv_3-depthwise-Action2","trainable":true},"inbound_nodes":[[["expanded_conv_3-depthwise-BatchNorm",0,0,{}]]]},{"name":"expanded_conv_3-squeeze_excite-AvgPool","class_name":"GlobalAveragePooling2D","config":{"data_format":"channels_last","name":"expanded_conv_3-squeeze_excite-AvgPool","trainable":true},"inbound_nodes":[[["expanded_conv_3-depthwise-Action2",0,0,{}]]]},{"name":"reshape_Reshape1","class_name":"Reshape","config":{"target_shape":[1,1,72],"name":"reshape_Reshape1","trainable":true},"inbound_nodes":[[["expanded_conv_3-squeeze_excite-AvgPool",0,0,{}]]]},{"name":"expanded_conv_3-squeeze_excite-Conv","class_name":"Conv2D","config":{"filters":24,"kernel_initializer":{"class_name":"VarianceScaling","config":{"scale":1,"mode":"fan_avg","distribution":"normal","seed":null}},"kernel_regularizer":null,"kernel_constraint":null,"kernel_size":[1,1],"strides":[1,1],"padding":"same","data_format":"channels_last","dilation_rate":[1,1],"activation":"linear","use_bias":true,"bias_initializer":{"class_name":"Zeros","config":{}},"bias_regularizer":null,"activity_regularizer":null,"bias_constraint":null,"name":"expanded_conv_3-squeeze_excite-Conv","trainable":true},"inbound_nodes":[[["reshape_Reshape1",0,0,{}]]]},{"name":"expanded_conv_3-squeeze_excite-Relu","class_name":"ReLU","config":{"max_value":null,"name":"expanded_conv_3-squeeze_excite-Relu","trainable":true},"inbound_nodes":[[["expanded_conv_3-squeeze_excite-Conv",0,0,{}]]]},{"name":"expanded_conv_3-squeeze_excite-Conv_1","class_name":"Conv2D","config":{"filters":72,"kernel_initializer":{"class_name":"VarianceScaling","config":{"scale":1,"mode":"fan_avg","distribution":"normal","seed":null}},"kernel_regularizer":null,"kernel_constraint":null,"kernel_size":[1,1],"strides":[1,1],"padding":"same","data_format":"channels_last","dilation_rate":[1,1],"activation":"linear","use_bias":true,"bias_initializer":{"class_name":"Zeros","config":{}},"bias_regularizer":null,"activity_regularizer":null,"bias_constraint":null,"name":"expanded_conv_3-squeeze_excite-Conv_1","trainable":true},"inbound_nodes":[[["expanded_conv_3-squeeze_excite-Relu",0,0,{}]]]},{"name":"expanded_conv_3-squeeze_excite-HardSigmoid","class_name":null,"config":{"name":"expanded_conv_3-squeeze_excite-HardSigmoid","trainable":true},"inbound_nodes":[[["expanded_conv_3-squeeze_excite-Conv_1",0,0,{}]]]},{"name":"expanded_conv_3-squeeze_excite-Mul","class_name":"Multiply","config":{"name":"expanded_conv_3-squeeze_excite-Mul","trainable":true},"inbound_nodes":[[["expanded_conv_3-depthwise-Action2",0,0,{}],["expanded_conv_3-squeeze_excite-HardSigmoid",0,0,{}]]]},{"name":"expanded_conv_3-project","class_name":"Conv2D","config":{"filters":40,"kernel_initializer":{"class_name":"VarianceScaling","config":{"scale":1,"mode":"fan_avg","distribution":"normal","seed":null}},"kernel_regularizer":null,"kernel_constraint":null,"kernel_size":[1,1],"strides":[1,1],"padding":"same","data_format":"channels_last","dilation_rate":[1,1],"activation":"linear","use_bias":false,"bias_initializer":{"class_name":"Zeros","config":{}},"bias_regularizer":null,"activity_regularizer":null,"bias_constraint":null,"name":"expanded_conv_3-project","trainable":true},"inbound_nodes":[[["expanded_conv_3-squeeze_excite-Mul",0,0,{}]]]},{"name":"expanded_conv_3-project-BatchNorm","class_name":"BatchNormalization","config":{"axis":-1,"momentum":0.99,"epsilon":0.001,"center":true,"scale":true,"beta_initializer":{"class_name":"Zeros","config":{}},"gamma_initializer":{"class_name":"Ones","config":{}},"moving_mean_initializer":{"class_name":"Zeros","config":{}},"moving_variance_initializer":{"class_name":"Ones","config":{}},"beta_regularizer":null,"gamma_regularizer":null,"beta_constraint":null,"gamma_constraint":null,"name":"expanded_conv_3-project-BatchNorm","trainable":true},"inbound_nodes":[[["expanded_conv_3-project",0,0,{}]]]},{"name":"expanded_conv_4-expand","class_name":"Conv2D","config":{"filters":120,"kernel_initializer":{"class_name":"VarianceScaling","config":{"scale":1,"mode":"fan_avg","distribution":"normal","seed":null}},"kernel_regularizer":{"class_name":"L1L2","config":{"l1":0,"l2":0.01}},"kernel_constraint":null,"kernel_size":[1,1],"strides":[1,1],"padding":"same","data_format":"channels_last","dilation_rate":[1,1],"activation":"linear","use_bias":false,"bias_initializer":{"class_name":"Zeros","config":{}},"bias_regularizer":null,"activity_regularizer":null,"bias_constraint":null,"name":"expanded_conv_4-expand","trainable":true},"inbound_nodes":[[["expanded_conv_3-project-BatchNorm",0,0,{}]]]},{"name":"expanded_conv_4-expand-BatchNorm","class_name":"BatchNormalization","config":{"axis":-1,"momentum":0.99,"epsilon":0.001,"center":true,"scale":true,"beta_initializer":{"class_name":"Zeros","config":{}},"gamma_initializer":{"class_name":"Ones","config":{}},"moving_mean_initializer":{"class_name":"Zeros","config":{}},"moving_variance_initializer":{"class_name":"Ones","config":{}},"beta_regularizer":null,"gamma_regularizer":null,"beta_constraint":null,"gamma_constraint":null,"name":"expanded_conv_4-expand-BatchNorm","trainable":true},"inbound_nodes":[[["expanded_conv_4-expand",0,0,{}]]]},{"name":"expanded_conv_4-depthwise-Action1","class_name":null,"config":{"name":"expanded_conv_4-depthwise-Action1","trainable":true},"inbound_nodes":[[["expanded_conv_4-expand-BatchNorm",0,0,{}]]]},{"name":"expanded_conv_4-depthwise","class_name":"DepthwiseConv2D","config":{"kernel_size":[5,5],"strides":[1,1],"padding":"same","data_format":"channels_last","dilation_rate":[1,1],"activation":"linear","use_bias":false,"bias_initializer":{"class_name":"Zeros","config":{}},"bias_regularizer":null,"activity_regularizer":null,"bias_constraint":null,"name":"expanded_conv_4-depthwise","trainable":true,"depth_multiplier":1,"depthwise_initializer":{"class_name":"VarianceScaling","config":{"scale":1,"mode":"fan_avg","distribution":"normal","seed":null}},"depthwise_regularizer":null,"depthwise_constraint":null},"inbound_nodes":[[["expanded_conv_4-depthwise-Action1",0,0,{}]]]},{"name":"expanded_conv_4-depthwise-BatchNorm","class_name":"BatchNormalization","config":{"axis":-1,"momentum":0.99,"epsilon":0.001,"center":true,"scale":true,"beta_initializer":{"class_name":"Zeros","config":{}},"gamma_initializer":{"class_name":"Ones","config":{}},"moving_mean_initializer":{"class_name":"Zeros","config":{}},"moving_variance_initializer":{"class_name":"Ones","config":{}},"beta_regularizer":null,"gamma_regularizer":null,"beta_constraint":null,"gamma_constraint":null,"name":"expanded_conv_4-depthwise-BatchNorm","trainable":true},"inbound_nodes":[[["expanded_conv_4-depthwise",0,0,{}]]]},{"name":"expanded_conv_4-depthwise-Action2","class_name":null,"config":{"name":"expanded_conv_4-depthwise-Action2","trainable":true},"inbound_nodes":[[["expanded_conv_4-depthwise-BatchNorm",0,0,{}]]]},{"name":"expanded_conv_4-squeeze_excite-AvgPool","class_name":"GlobalAveragePooling2D","config":{"data_format":"channels_last","name":"expanded_conv_4-squeeze_excite-AvgPool","trainable":true},"inbound_nodes":[[["expanded_conv_4-depthwise-Action2",0,0,{}]]]},{"name":"reshape_Reshape2","class_name":"Reshape","config":{"target_shape":[1,1,120],"name":"reshape_Reshape2","trainable":true},"inbound_nodes":[[["expanded_conv_4-squeeze_excite-AvgPool",0,0,{}]]]},{"name":"expanded_conv_4-squeeze_excite-Conv","class_name":"Conv2D","config":{"filters":32,"kernel_initializer":{"class_name":"VarianceScaling","config":{"scale":1,"mode":"fan_avg","distribution":"normal","seed":null}},"kernel_regularizer":null,"kernel_constraint":null,"kernel_size":[1,1],"strides":[1,1],"padding":"same","data_format":"channels_last","dilation_rate":[1,1],"activation":"linear","use_bias":true,"bias_initializer":{"class_name":"Zeros","config":{}},"bias_regularizer":null,"activity_regularizer":null,"bias_constraint":null,"name":"expanded_conv_4-squeeze_excite-Conv","trainable":true},"inbound_nodes":[[["reshape_Reshape2",0,0,{}]]]},{"name":"expanded_conv_4-squeeze_excite-Relu","class_name":"ReLU","config":{"max_value":null,"name":"expanded_conv_4-squeeze_excite-Relu","trainable":true},"inbound_nodes":[[["expanded_conv_4-squeeze_excite-Conv",0,0,{}]]]},{"name":"expanded_conv_4-squeeze_excite-Conv_1","class_name":"Conv2D","config":{"filters":120,"kernel_initializer":{"class_name":"VarianceScaling","config":{"scale":1,"mode":"fan_avg","distribution":"normal","seed":null}},"kernel_regularizer":null,"kernel_constraint":null,"kernel_size":[1,1],"strides":[1,1],"padding":"same","data_format":"channels_last","dilation_rate":[1,1],"activation":"linear","use_bias":true,"bias_initializer":{"class_name":"Zeros","config":{}},"bias_regularizer":null,"activity_regularizer":null,"bias_constraint":null,"name":"expanded_conv_4-squeeze_excite-Conv_1","trainable":true},"inbound_nodes":[[["expanded_conv_4-squeeze_excite-Relu",0,0,{}]]]},{"name":"expanded_conv_4-squeeze_excite-HardSigmoid","class_name":null,"config":{"name":"expanded_conv_4-squeeze_excite-HardSigmoid","trainable":true},"inbound_nodes":[[["expanded_conv_4-squeeze_excite-Conv_1",0,0,{}]]]},{"name":"expanded_conv_4-squeeze_excite-Mul","class_name":"Multiply","config":{"name":"expanded_conv_4-squeeze_excite-Mul","trainable":true},"inbound_nodes":[[["expanded_conv_4-depthwise-Action2",0,0,{}],["expanded_conv_4-squeeze_excite-HardSigmoid",0,0,{}]]]},{"name":"expanded_conv_4-project","class_name":"Conv2D","config":{"filters":40,"kernel_initializer":{"class_name":"VarianceScaling","config":{"scale":1,"mode":"fan_avg","distribution":"normal","seed":null}},"kernel_regularizer":null,"kernel_constraint":null,"kernel_size":[1,1],"strides":[1,1],"padding":"same","data_format":"channels_last","dilation_rate":[1,1],"activation":"linear","use_bias":false,"bias_initializer":{"class_name":"Zeros","config":{}},"bias_regularizer":null,"activity_regularizer":null,"bias_constraint":null,"name":"expanded_conv_4-project","trainable":true},"inbound_nodes":[[["expanded_conv_4-squeeze_excite-Mul",0,0,{}]]]},{"name":"expanded_conv_4-project-BatchNorm","class_name":"BatchNormalization","config":{"axis":-1,"momentum":0.99,"epsilon":0.001,"center":true,"scale":true,"beta_initializer":{"class_name":"Zeros","config":{}},"gamma_initializer":{"class_name":"Ones","config":{}},"moving_mean_initializer":{"class_name":"Zeros","config":{}},"moving_variance_initializer":{"class_name":"Ones","config":{}},"beta_regularizer":null,"gamma_regularizer":null,"beta_constraint":null,"gamma_constraint":null,"name":"expanded_conv_4-project-BatchNorm","trainable":true},"inbound_nodes":[[["expanded_conv_4-project",0,0,{}]]]},{"name":"expanded_conv_4-Add","class_name":"Add","config":{"name":"expanded_conv_4-Add","trainable":true},"inbound_nodes":[[["expanded_conv_4-project-BatchNorm",0,0,{}],["expanded_conv_3-project-BatchNorm",0,0,{}]]]},{"name":"expanded_conv_5-expand","class_name":"Conv2D","config":{"filters":120,"kernel_initializer":{"class_name":"VarianceScaling","config":{"scale":1,"mode":"fan_avg","distribution":"normal","seed":null}},"kernel_regularizer":{"class_name":"L1L2","config":{"l1":0,"l2":0.01}},"kernel_constraint":null,"kernel_size":[1,1],"strides":[1,1],"padding":"same","data_format":"channels_last","dilation_rate":[1,1],"activation":"linear","use_bias":false,"bias_initializer":{"class_name":"Zeros","config":{}},"bias_regularizer":null,"activity_regularizer":null,"bias_constraint":null,"name":"expanded_conv_5-expand","trainable":true},"inbound_nodes":[[["expanded_conv_4-Add",0,0,{}]]]},{"name":"expanded_conv_5-expand-BatchNorm","class_name":"BatchNormalization","config":{"axis":-1,"momentum":0.99,"epsilon":0.001,"center":true,"scale":true,"beta_initializer":{"class_name":"Zeros","config":{}},"gamma_initializer":{"class_name":"Ones","config":{}},"moving_mean_initializer":{"class_name":"Zeros","config":{}},"moving_variance_initializer":{"class_name":"Ones","config":{}},"beta_regularizer":null,"gamma_regularizer":null,"beta_constraint":null,"gamma_constraint":null,"name":"expanded_conv_5-expand-BatchNorm","trainable":true},"inbound_nodes":[[["expanded_conv_5-expand",0,0,{}]]]},{"name":"expanded_conv_5-depthwise-Action1","class_name":null,"config":{"name":"expanded_conv_5-depthwise-Action1","trainable":true},"inbound_nodes":[[["expanded_conv_5-expand-BatchNorm",0,0,{}]]]},{"name":"expanded_conv_5-depthwise","class_name":"DepthwiseConv2D","config":{"kernel_size":[5,5],"strides":[1,1],"padding":"same","data_format":"channels_last","dilation_rate":[1,1],"activation":"linear","use_bias":false,"bias_initializer":{"class_name":"Zeros","config":{}},"bias_regularizer":null,"activity_regularizer":null,"bias_constraint":null,"name":"expanded_conv_5-depthwise","trainable":true,"depth_multiplier":1,"depthwise_initializer":{"class_name":"VarianceScaling","config":{"scale":1,"mode":"fan_avg","distribution":"normal","seed":null}},"depthwise_regularizer":null,"depthwise_constraint":null},"inbound_nodes":[[["expanded_conv_5-depthwise-Action1",0,0,{}]]]},{"name":"expanded_conv_5-depthwise-BatchNorm","class_name":"BatchNormalization","config":{"axis":-1,"momentum":0.99,"epsilon":0.001,"center":true,"scale":true,"beta_initializer":{"class_name":"Zeros","config":{}},"gamma_initializer":{"class_name":"Ones","config":{}},"moving_mean_initializer":{"class_name":"Zeros","config":{}},"moving_variance_initializer":{"class_name":"Ones","config":{}},"beta_regularizer":null,"gamma_regularizer":null,"beta_constraint":null,"gamma_constraint":null,"name":"expanded_conv_5-depthwise-BatchNorm","trainable":true},"inbound_nodes":[[["expanded_conv_5-depthwise",0,0,{}]]]},{"name":"expanded_conv_5-depthwise-Action2","class_name":null,"config":{"name":"expanded_conv_5-depthwise-Action2","trainable":true},"inbound_nodes":[[["expanded_conv_5-depthwise-BatchNorm",0,0,{}]]]},{"name":"expanded_conv_5-squeeze_excite-AvgPool","class_name":"GlobalAveragePooling2D","config":{"data_format":"channels_last","name":"expanded_conv_5-squeeze_excite-AvgPool","trainable":true},"inbound_nodes":[[["expanded_conv_5-depthwise-Action2",0,0,{}]]]},{"name":"reshape_Reshape3","class_name":"Reshape","config":{"target_shape":[1,1,120],"name":"reshape_Reshape3","trainable":true},"inbound_nodes":[[["expanded_conv_5-squeeze_excite-AvgPool",0,0,{}]]]},{"name":"expanded_conv_5-squeeze_excite-Conv","class_name":"Conv2D","config":{"filters":32,"kernel_initializer":{"class_name":"VarianceScaling","config":{"scale":1,"mode":"fan_avg","distribution":"normal","seed":null}},"kernel_regularizer":null,"kernel_constraint":null,"kernel_size":[1,1],"strides":[1,1],"padding":"same","data_format":"channels_last","dilation_rate":[1,1],"activation":"linear","use_bias":true,"bias_initializer":{"class_name":"Zeros","config":{}},"bias_regularizer":null,"activity_regularizer":null,"bias_constraint":null,"name":"expanded_conv_5-squeeze_excite-Conv","trainable":true},"inbound_nodes":[[["reshape_Reshape3",0,0,{}]]]},{"name":"expanded_conv_5-squeeze_excite-Relu","class_name":"ReLU","config":{"max_value":null,"name":"expanded_conv_5-squeeze_excite-Relu","trainable":true},"inbound_nodes":[[["expanded_conv_5-squeeze_excite-Conv",0,0,{}]]]},{"name":"expanded_conv_5-squeeze_excite-Conv_1","class_name":"Conv2D","config":{"filters":120,"kernel_initializer":{"class_name":"VarianceScaling","config":{"scale":1,"mode":"fan_avg","distribution":"normal","seed":null}},"kernel_regularizer":null,"kernel_constraint":null,"kernel_size":[1,1],"strides":[1,1],"padding":"same","data_format":"channels_last","dilation_rate":[1,1],"activation":"linear","use_bias":true,"bias_initializer":{"class_name":"Zeros","config":{}},"bias_regularizer":null,"activity_regularizer":null,"bias_constraint":null,"name":"expanded_conv_5-squeeze_excite-Conv_1","trainable":true},"inbound_nodes":[[["expanded_conv_5-squeeze_excite-Relu",0,0,{}]]]},{"name":"expanded_conv_5-squeeze_excite-HardSigmoid","class_name":null,"config":{"name":"expanded_conv_5-squeeze_excite-HardSigmoid","trainable":true},"inbound_nodes":[[["expanded_conv_5-squeeze_excite-Conv_1",0,0,{}]]]},{"name":"expanded_conv_5-squeeze_excite-Mul","class_name":"Multiply","config":{"name":"expanded_conv_5-squeeze_excite-Mul","trainable":true},"inbound_nodes":[[["expanded_conv_5-depthwise-Action2",0,0,{}],["expanded_conv_5-squeeze_excite-HardSigmoid",0,0,{}]]]},{"name":"expanded_conv_5-project","class_name":"Conv2D","config":{"filters":40,"kernel_initializer":{"class_name":"VarianceScaling","config":{"scale":1,"mode":"fan_avg","distribution":"normal","seed":null}},"kernel_regularizer":null,"kernel_constraint":null,"kernel_size":[1,1],"strides":[1,1],"padding":"same","data_format":"channels_last","dilation_rate":[1,1],"activation":"linear","use_bias":false,"bias_initializer":{"class_name":"Zeros","config":{}},"bias_regularizer":null,"activity_regularizer":null,"bias_constraint":null,"name":"expanded_conv_5-project","trainable":true},"inbound_nodes":[[["expanded_conv_5-squeeze_excite-Mul",0,0,{}]]]},{"name":"expanded_conv_5-project-BatchNorm","class_name":"BatchNormalization","config":{"axis":-1,"momentum":0.99,"epsilon":0.001,"center":true,"scale":true,"beta_initializer":{"class_name":"Zeros","config":{}},"gamma_initializer":{"class_name":"Ones","config":{}},"moving_mean_initializer":{"class_name":"Zeros","config":{}},"moving_variance_initializer":{"class_name":"Ones","config":{}},"beta_regularizer":null,"gamma_regularizer":null,"beta_constraint":null,"gamma_constraint":null,"name":"expanded_conv_5-project-BatchNorm","trainable":true},"inbound_nodes":[[["expanded_conv_5-project",0,0,{}]]]},{"name":"expanded_conv_5-Add","class_name":"Add","config":{"name":"expanded_conv_5-Add","trainable":true},"inbound_nodes":[[["expanded_conv_5-project-BatchNorm",0,0,{}],["expanded_conv_4-Add",0,0,{}]]]},{"name":"expanded_conv_6-expand","class_name":"Conv2D","config":{"filters":240,"kernel_initializer":{"class_name":"VarianceScaling","config":{"scale":1,"mode":"fan_avg","distribution":"normal","seed":null}},"kernel_regularizer":{"class_name":"L1L2","config":{"l1":0,"l2":0.01}},"kernel_constraint":null,"kernel_size":[1,1],"strides":[1,1],"padding":"same","data_format":"channels_last","dilation_rate":[1,1],"activation":"linear","use_bias":false,"bias_initializer":{"class_name":"Zeros","config":{}},"bias_regularizer":null,"activity_regularizer":null,"bias_constraint":null,"name":"expanded_conv_6-expand","trainable":true},"inbound_nodes":[[["expanded_conv_5-Add",0,0,{}]]]},{"name":"expanded_conv_6-expand-BatchNorm","class_name":"BatchNormalization","config":{"axis":-1,"momentum":0.99,"epsilon":0.001,"center":true,"scale":true,"beta_initializer":{"class_name":"Zeros","config":{}},"gamma_initializer":{"class_name":"Ones","config":{}},"moving_mean_initializer":{"class_name":"Zeros","config":{}},"moving_variance_initializer":{"class_name":"Ones","config":{}},"beta_regularizer":null,"gamma_regularizer":null,"beta_constraint":null,"gamma_constraint":null,"name":"expanded_conv_6-expand-BatchNorm","trainable":true},"inbound_nodes":[[["expanded_conv_6-expand",0,0,{}]]]},{"name":"expanded_conv_6-depthwise-Action1","class_name":null,"config":{"name":"expanded_conv_6-depthwise-Action1","trainable":true},"inbound_nodes":[[["expanded_conv_6-expand-BatchNorm",0,0,{}]]]},{"name":"expanded_conv_6-depthwise-pad","class_name":"ZeroPadding2D","config":{"padding":[[1.5,1.5],[1.5,1.5]],"data_format":"channels_last","name":"expanded_conv_6-depthwise-pad","trainable":true},"inbound_nodes":[[["expanded_conv_6-depthwise-Action1",0,0,{}]]]},{"name":"expanded_conv_6-depthwise","class_name":"DepthwiseConv2D","config":{"kernel_size":[3,3],"strides":[2,2],"padding":"same","data_format":"channels_last","dilation_rate":[1,1],"activation":"linear","use_bias":false,"bias_initializer":{"class_name":"Zeros","config":{}},"bias_regularizer":null,"activity_regularizer":null,"bias_constraint":null,"name":"expanded_conv_6-depthwise","trainable":true,"depth_multiplier":1,"depthwise_initializer":{"class_name":"VarianceScaling","config":{"scale":1,"mode":"fan_avg","distribution":"normal","seed":null}},"depthwise_regularizer":null,"depthwise_constraint":null},"inbound_nodes":[[["expanded_conv_6-depthwise-pad",0,0,{}]]]},{"name":"expanded_conv_6-depthwise-BatchNorm","class_name":"BatchNormalization","config":{"axis":-1,"momentum":0.99,"epsilon":0.001,"center":true,"scale":true,"beta_initializer":{"class_name":"Zeros","config":{}},"gamma_initializer":{"class_name":"Ones","config":{}},"moving_mean_initializer":{"class_name":"Zeros","config":{}},"moving_variance_initializer":{"class_name":"Ones","config":{}},"beta_regularizer":null,"gamma_regularizer":null,"beta_constraint":null,"gamma_constraint":null,"name":"expanded_conv_6-depthwise-BatchNorm","trainable":true},"inbound_nodes":[[["expanded_conv_6-depthwise",0,0,{}]]]},{"name":"expanded_conv_6-depthwise-Action2","class_name":null,"config":{"name":"expanded_conv_6-depthwise-Action2","trainable":true},"inbound_nodes":[[["expanded_conv_6-depthwise-BatchNorm",0,0,{}]]]},{"name":"expanded_conv_6-project","class_name":"Conv2D","config":{"filters":80,"kernel_initializer":{"class_name":"VarianceScaling","config":{"scale":1,"mode":"fan_avg","distribution":"normal","seed":null}},"kernel_regularizer":null,"kernel_constraint":null,"kernel_size":[1,1],"strides":[1,1],"padding":"same","data_format":"channels_last","dilation_rate":[1,1],"activation":"linear","use_bias":false,"bias_initializer":{"class_name":"Zeros","config":{}},"bias_regularizer":null,"activity_regularizer":null,"bias_constraint":null,"name":"expanded_conv_6-project","trainable":true},"inbound_nodes":[[["expanded_conv_6-depthwise-Action2",0,0,{}]]]},{"name":"expanded_conv_6-project-BatchNorm","class_name":"BatchNormalization","config":{"axis":-1,"momentum":0.99,"epsilon":0.001,"center":true,"scale":true,"beta_initializer":{"class_name":"Zeros","config":{}},"gamma_initializer":{"class_name":"Ones","config":{}},"moving_mean_initializer":{"class_name":"Zeros","config":{}},"moving_variance_initializer":{"class_name":"Ones","config":{}},"beta_regularizer":null,"gamma_regularizer":null,"beta_constraint":null,"gamma_constraint":null,"name":"expanded_conv_6-project-BatchNorm","trainable":true},"inbound_nodes":[[["expanded_conv_6-project",0,0,{}]]]},{"name":"expanded_conv_7-expand","class_name":"Conv2D","config":{"filters":200,"kernel_initializer":{"class_name":"VarianceScaling","config":{"scale":1,"mode":"fan_avg","distribution":"normal","seed":null}},"kernel_regularizer":{"class_name":"L1L2","config":{"l1":0,"l2":0.01}},"kernel_constraint":null,"kernel_size":[1,1],"strides":[1,1],"padding":"same","data_format":"channels_last","dilation_rate":[1,1],"activation":"linear","use_bias":false,"bias_initializer":{"class_name":"Zeros","config":{}},"bias_regularizer":null,"activity_regularizer":null,"bias_constraint":null,"name":"expanded_conv_7-expand","trainable":true},"inbound_nodes":[[["expanded_conv_6-project-BatchNorm",0,0,{}]]]},{"name":"expanded_conv_7-expand-BatchNorm","class_name":"BatchNormalization","config":{"axis":-1,"momentum":0.99,"epsilon":0.001,"center":true,"scale":true,"beta_initializer":{"class_name":"Zeros","config":{}},"gamma_initializer":{"class_name":"Ones","config":{}},"moving_mean_initializer":{"class_name":"Zeros","config":{}},"moving_variance_initializer":{"class_name":"Ones","config":{}},"beta_regularizer":null,"gamma_regularizer":null,"beta_constraint":null,"gamma_constraint":null,"name":"expanded_conv_7-expand-BatchNorm","trainable":true},"inbound_nodes":[[["expanded_conv_7-expand",0,0,{}]]]},{"name":"expanded_conv_7-depthwise-Action1","class_name":null,"config":{"name":"expanded_conv_7-depthwise-Action1","trainable":true},"inbound_nodes":[[["expanded_conv_7-expand-BatchNorm",0,0,{}]]]},{"name":"expanded_conv_7-depthwise","class_name":"DepthwiseConv2D","config":{"kernel_size":[3,3],"strides":[1,1],"padding":"same","data_format":"channels_last","dilation_rate":[1,1],"activation":"linear","use_bias":false,"bias_initializer":{"class_name":"Zeros","config":{}},"bias_regularizer":null,"activity_regularizer":null,"bias_constraint":null,"name":"expanded_conv_7-depthwise","trainable":true,"depth_multiplier":1,"depthwise_initializer":{"class_name":"VarianceScaling","config":{"scale":1,"mode":"fan_avg","distribution":"normal","seed":null}},"depthwise_regularizer":null,"depthwise_constraint":null},"inbound_nodes":[[["expanded_conv_7-depthwise-Action1",0,0,{}]]]},{"name":"expanded_conv_7-depthwise-BatchNorm","class_name":"BatchNormalization","config":{"axis":-1,"momentum":0.99,"epsilon":0.001,"center":true,"scale":true,"beta_initializer":{"class_name":"Zeros","config":{}},"gamma_initializer":{"class_name":"Ones","config":{}},"moving_mean_initializer":{"class_name":"Zeros","config":{}},"moving_variance_initializer":{"class_name":"Ones","config":{}},"beta_regularizer":null,"gamma_regularizer":null,"beta_constraint":null,"gamma_constraint":null,"name":"expanded_conv_7-depthwise-BatchNorm","trainable":true},"inbound_nodes":[[["expanded_conv_7-depthwise",0,0,{}]]]},{"name":"expanded_conv_7-depthwise-Action2","class_name":null,"config":{"name":"expanded_conv_7-depthwise-Action2","trainable":true},"inbound_nodes":[[["expanded_conv_7-depthwise-BatchNorm",0,0,{}]]]},{"name":"expanded_conv_7-project","class_name":"Conv2D","config":{"filters":80,"kernel_initializer":{"class_name":"VarianceScaling","config":{"scale":1,"mode":"fan_avg","distribution":"normal","seed":null}},"kernel_regularizer":null,"kernel_constraint":null,"kernel_size":[1,1],"strides":[1,1],"padding":"same","data_format":"channels_last","dilation_rate":[1,1],"activation":"linear","use_bias":false,"bias_initializer":{"class_name":"Zeros","config":{}},"bias_regularizer":null,"activity_regularizer":null,"bias_constraint":null,"name":"expanded_conv_7-project","trainable":true},"inbound_nodes":[[["expanded_conv_7-depthwise-Action2",0,0,{}]]]},{"name":"expanded_conv_7-project-BatchNorm","class_name":"BatchNormalization","config":{"axis":-1,"momentum":0.99,"epsilon":0.001,"center":true,"scale":true,"beta_initializer":{"class_name":"Zeros","config":{}},"gamma_initializer":{"class_name":"Ones","config":{}},"moving_mean_initializer":{"class_name":"Zeros","config":{}},"moving_variance_initializer":{"class_name":"Ones","config":{}},"beta_regularizer":null,"gamma_regularizer":null,"beta_constraint":null,"gamma_constraint":null,"name":"expanded_conv_7-project-BatchNorm","trainable":true},"inbound_nodes":[[["expanded_conv_7-project",0,0,{}]]]},{"name":"expanded_conv_7-Add","class_name":"Add","config":{"name":"expanded_conv_7-Add","trainable":true},"inbound_nodes":[[["expanded_conv_7-project-BatchNorm",0,0,{}],["expanded_conv_6-project-BatchNorm",0,0,{}]]]},{"name":"expanded_conv_8-expand","class_name":"Conv2D","config":{"filters":184,"kernel_initializer":{"class_name":"VarianceScaling","config":{"scale":1,"mode":"fan_avg","distribution":"normal","seed":null}},"kernel_regularizer":{"class_name":"L1L2","config":{"l1":0,"l2":0.01}},"kernel_constraint":null,"kernel_size":[1,1],"strides":[1,1],"padding":"same","data_format":"channels_last","dilation_rate":[1,1],"activation":"linear","use_bias":false,"bias_initializer":{"class_name":"Zeros","config":{}},"bias_regularizer":null,"activity_regularizer":null,"bias_constraint":null,"name":"expanded_conv_8-expand","trainable":true},"inbound_nodes":[[["expanded_conv_7-Add",0,0,{}]]]},{"name":"expanded_conv_8-expand-BatchNorm","class_name":"BatchNormalization","config":{"axis":-1,"momentum":0.99,"epsilon":0.001,"center":true,"scale":true,"beta_initializer":{"class_name":"Zeros","config":{}},"gamma_initializer":{"class_name":"Ones","config":{}},"moving_mean_initializer":{"class_name":"Zeros","config":{}},"moving_variance_initializer":{"class_name":"Ones","config":{}},"beta_regularizer":null,"gamma_regularizer":null,"beta_constraint":null,"gamma_constraint":null,"name":"expanded_conv_8-expand-BatchNorm","trainable":true},"inbound_nodes":[[["expanded_conv_8-expand",0,0,{}]]]},{"name":"expanded_conv_8-depthwise-Action1","class_name":null,"config":{"name":"expanded_conv_8-depthwise-Action1","trainable":true},"inbound_nodes":[[["expanded_conv_8-expand-BatchNorm",0,0,{}]]]},{"name":"expanded_conv_8-depthwise","class_name":"DepthwiseConv2D","config":{"kernel_size":[3,3],"strides":[1,1],"padding":"same","data_format":"channels_last","dilation_rate":[1,1],"activation":"linear","use_bias":false,"bias_initializer":{"class_name":"Zeros","config":{}},"bias_regularizer":null,"activity_regularizer":null,"bias_constraint":null,"name":"expanded_conv_8-depthwise","trainable":true,"depth_multiplier":1,"depthwise_initializer":{"class_name":"VarianceScaling","config":{"scale":1,"mode":"fan_avg","distribution":"normal","seed":null}},"depthwise_regularizer":null,"depthwise_constraint":null},"inbound_nodes":[[["expanded_conv_8-depthwise-Action1",0,0,{}]]]},{"name":"expanded_conv_8-depthwise-BatchNorm","class_name":"BatchNormalization","config":{"axis":-1,"momentum":0.99,"epsilon":0.001,"center":true,"scale":true,"beta_initializer":{"class_name":"Zeros","config":{}},"gamma_initializer":{"class_name":"Ones","config":{}},"moving_mean_initializer":{"class_name":"Zeros","config":{}},"moving_variance_initializer":{"class_name":"Ones","config":{}},"beta_regularizer":null,"gamma_regularizer":null,"beta_constraint":null,"gamma_constraint":null,"name":"expanded_conv_8-depthwise-BatchNorm","trainable":true},"inbound_nodes":[[["expanded_conv_8-depthwise",0,0,{}]]]},{"name":"expanded_conv_8-depthwise-Action2","class_name":null,"config":{"name":"expanded_conv_8-depthwise-Action2","trainable":true},"inbound_nodes":[[["expanded_conv_8-depthwise-BatchNorm",0,0,{}]]]},{"name":"expanded_conv_8-project","class_name":"Conv2D","config":{"filters":80,"kernel_initializer":{"class_name":"VarianceScaling","config":{"scale":1,"mode":"fan_avg","distribution":"normal","seed":null}},"kernel_regularizer":null,"kernel_constraint":null,"kernel_size":[1,1],"strides":[1,1],"padding":"same","data_format":"channels_last","dilation_rate":[1,1],"activation":"linear","use_bias":false,"bias_initializer":{"class_name":"Zeros","config":{}},"bias_regularizer":null,"activity_regularizer":null,"bias_constraint":null,"name":"expanded_conv_8-project","trainable":true},"inbound_nodes":[[["expanded_conv_8-depthwise-Action2",0,0,{}]]]},{"name":"expanded_conv_8-project-BatchNorm","class_name":"BatchNormalization","config":{"axis":-1,"momentum":0.99,"epsilon":0.001,"center":true,"scale":true,"beta_initializer":{"class_name":"Zeros","config":{}},"gamma_initializer":{"class_name":"Ones","config":{}},"moving_mean_initializer":{"class_name":"Zeros","config":{}},"moving_variance_initializer":{"class_name":"Ones","config":{}},"beta_regularizer":null,"gamma_regularizer":null,"beta_constraint":null,"gamma_constraint":null,"name":"expanded_conv_8-project-BatchNorm","trainable":true},"inbound_nodes":[[["expanded_conv_8-project",0,0,{}]]]},{"name":"expanded_conv_8-Add","class_name":"Add","config":{"name":"expanded_conv_8-Add","trainable":true},"inbound_nodes":[[["expanded_conv_8-project-BatchNorm",0,0,{}],["expanded_conv_7-Add",0,0,{}]]]},{"name":"expanded_conv_9-expand","class_name":"Conv2D","config":{"filters":184,"kernel_initializer":{"class_name":"VarianceScaling","config":{"scale":1,"mode":"fan_avg","distribution":"normal","seed":null}},"kernel_regularizer":{"class_name":"L1L2","config":{"l1":0,"l2":0.01}},"kernel_constraint":null,"kernel_size":[1,1],"strides":[1,1],"padding":"same","data_format":"channels_last","dilation_rate":[1,1],"activation":"linear","use_bias":false,"bias_initializer":{"class_name":"Zeros","config":{}},"bias_regularizer":null,"activity_regularizer":null,"bias_constraint":null,"name":"expanded_conv_9-expand","trainable":true},"inbound_nodes":[[["expanded_conv_8-Add",0,0,{}]]]},{"name":"expanded_conv_9-expand-BatchNorm","class_name":"BatchNormalization","config":{"axis":-1,"momentum":0.99,"epsilon":0.001,"center":true,"scale":true,"beta_initializer":{"class_name":"Zeros","config":{}},"gamma_initializer":{"class_name":"Ones","config":{}},"moving_mean_initializer":{"class_name":"Zeros","config":{}},"moving_variance_initializer":{"class_name":"Ones","config":{}},"beta_regularizer":null,"gamma_regularizer":null,"beta_constraint":null,"gamma_constraint":null,"name":"expanded_conv_9-expand-BatchNorm","trainable":true},"inbound_nodes":[[["expanded_conv_9-expand",0,0,{}]]]},{"name":"expanded_conv_9-depthwise-Action1","class_name":null,"config":{"name":"expanded_conv_9-depthwise-Action1","trainable":true},"inbound_nodes":[[["expanded_conv_9-expand-BatchNorm",0,0,{}]]]},{"name":"expanded_conv_9-depthwise","class_name":"DepthwiseConv2D","config":{"kernel_size":[3,3],"strides":[1,1],"padding":"same","data_format":"channels_last","dilation_rate":[1,1],"activation":"linear","use_bias":false,"bias_initializer":{"class_name":"Zeros","config":{}},"bias_regularizer":null,"activity_regularizer":null,"bias_constraint":null,"name":"expanded_conv_9-depthwise","trainable":true,"depth_multiplier":1,"depthwise_initializer":{"class_name":"VarianceScaling","config":{"scale":1,"mode":"fan_avg","distribution":"normal","seed":null}},"depthwise_regularizer":null,"depthwise_constraint":null},"inbound_nodes":[[["expanded_conv_9-depthwise-Action1",0,0,{}]]]},{"name":"expanded_conv_9-depthwise-BatchNorm","class_name":"BatchNormalization","config":{"axis":-1,"momentum":0.99,"epsilon":0.001,"center":true,"scale":true,"beta_initializer":{"class_name":"Zeros","config":{}},"gamma_initializer":{"class_name":"Ones","config":{}},"moving_mean_initializer":{"class_name":"Zeros","config":{}},"moving_variance_initializer":{"class_name":"Ones","config":{}},"beta_regularizer":null,"gamma_regularizer":null,"beta_constraint":null,"gamma_constraint":null,"name":"expanded_conv_9-depthwise-BatchNorm","trainable":true},"inbound_nodes":[[["expanded_conv_9-depthwise",0,0,{}]]]},{"name":"expanded_conv_9-depthwise-Action2","class_name":null,"config":{"name":"expanded_conv_9-depthwise-Action2","trainable":true},"inbound_nodes":[[["expanded_conv_9-depthwise-BatchNorm",0,0,{}]]]},{"name":"expanded_conv_9-squeeze_excite-AvgPool","class_name":"GlobalAveragePooling2D","config":{"data_format":"channels_last","name":"expanded_conv_9-squeeze_excite-AvgPool","trainable":true},"inbound_nodes":[[["expanded_conv_9-depthwise-Action2",0,0,{}]]]},{"name":"reshape_Reshape4","class_name":"Reshape","config":{"target_shape":[1,1,184],"name":"reshape_Reshape4","trainable":true},"inbound_nodes":[[["expanded_conv_9-squeeze_excite-AvgPool",0,0,{}]]]},{"name":"expanded_conv_9-squeeze_excite-Conv","class_name":"Conv2D","config":{"filters":48,"kernel_initializer":{"class_name":"VarianceScaling","config":{"scale":1,"mode":"fan_avg","distribution":"normal","seed":null}},"kernel_regularizer":null,"kernel_constraint":null,"kernel_size":[1,1],"strides":[1,1],"padding":"same","data_format":"channels_last","dilation_rate":[1,1],"activation":"linear","use_bias":true,"bias_initializer":{"class_name":"Zeros","config":{}},"bias_regularizer":null,"activity_regularizer":null,"bias_constraint":null,"name":"expanded_conv_9-squeeze_excite-Conv","trainable":true},"inbound_nodes":[[["reshape_Reshape4",0,0,{}]]]},{"name":"expanded_conv_9-squeeze_excite-Relu","class_name":"ReLU","config":{"max_value":null,"name":"expanded_conv_9-squeeze_excite-Relu","trainable":true},"inbound_nodes":[[["expanded_conv_9-squeeze_excite-Conv",0,0,{}]]]},{"name":"expanded_conv_9-squeeze_excite-Conv_1","class_name":"Conv2D","config":{"filters":184,"kernel_initializer":{"class_name":"VarianceScaling","config":{"scale":1,"mode":"fan_avg","distribution":"normal","seed":null}},"kernel_regularizer":null,"kernel_constraint":null,"kernel_size":[1,1],"strides":[1,1],"padding":"same","data_format":"channels_last","dilation_rate":[1,1],"activation":"linear","use_bias":true,"bias_initializer":{"class_name":"Zeros","config":{}},"bias_regularizer":null,"activity_regularizer":null,"bias_constraint":null,"name":"expanded_conv_9-squeeze_excite-Conv_1","trainable":true},"inbound_nodes":[[["expanded_conv_9-squeeze_excite-Relu",0,0,{}]]]},{"name":"expanded_conv_9-squeeze_excite-HardSigmoid","class_name":null,"config":{"name":"expanded_conv_9-squeeze_excite-HardSigmoid","trainable":true},"inbound_nodes":[[["expanded_conv_9-squeeze_excite-Conv_1",0,0,{}]]]},{"name":"expanded_conv_9-squeeze_excite-Mul","class_name":"Multiply","config":{"name":"expanded_conv_9-squeeze_excite-Mul","trainable":true},"inbound_nodes":[[["expanded_conv_9-depthwise-Action2",0,0,{}],["expanded_conv_9-squeeze_excite-HardSigmoid",0,0,{}]]]},{"name":"expanded_conv_9-project","class_name":"Conv2D","config":{"filters":80,"kernel_initializer":{"class_name":"VarianceScaling","config":{"scale":1,"mode":"fan_avg","distribution":"normal","seed":null}},"kernel_regularizer":null,"kernel_constraint":null,"kernel_size":[1,1],"strides":[1,1],"padding":"same","data_format":"channels_last","dilation_rate":[1,1],"activation":"linear","use_bias":false,"bias_initializer":{"class_name":"Zeros","config":{}},"bias_regularizer":null,"activity_regularizer":null,"bias_constraint":null,"name":"expanded_conv_9-project","trainable":true},"inbound_nodes":[[["expanded_conv_9-squeeze_excite-Mul",0,0,{}]]]},{"name":"expanded_conv_9-project-BatchNorm","class_name":"BatchNormalization","config":{"axis":-1,"momentum":0.99,"epsilon":0.001,"center":true,"scale":true,"beta_initializer":{"class_name":"Zeros","config":{}},"gamma_initializer":{"class_name":"Ones","config":{}},"moving_mean_initializer":{"class_name":"Zeros","config":{}},"moving_variance_initializer":{"class_name":"Ones","config":{}},"beta_regularizer":null,"gamma_regularizer":null,"beta_constraint":null,"gamma_constraint":null,"name":"expanded_conv_9-project-BatchNorm","trainable":true},"inbound_nodes":[[["expanded_conv_9-project",0,0,{}]]]},{"name":"expanded_conv_9-Add","class_name":"Add","config":{"name":"expanded_conv_9-Add","trainable":true},"inbound_nodes":[[["expanded_conv_9-project-BatchNorm",0,0,{}],["expanded_conv_8-Add",0,0,{}]]]},{"name":"expanded_conv_10-expand","class_name":"Conv2D","config":{"filters":480,"kernel_initializer":{"class_name":"VarianceScaling","config":{"scale":1,"mode":"fan_avg","distribution":"normal","seed":null}},"kernel_regularizer":{"class_name":"L1L2","config":{"l1":0,"l2":0.01}},"kernel_constraint":null,"kernel_size":[1,1],"strides":[1,1],"padding":"same","data_format":"channels_last","dilation_rate":[1,1],"activation":"linear","use_bias":false,"bias_initializer":{"class_name":"Zeros","config":{}},"bias_regularizer":null,"activity_regularizer":null,"bias_constraint":null,"name":"expanded_conv_10-expand","trainable":true},"inbound_nodes":[[["expanded_conv_9-Add",0,0,{}]]]},{"name":"expanded_conv_10-expand-BatchNorm","class_name":"BatchNormalization","config":{"axis":-1,"momentum":0.99,"epsilon":0.001,"center":true,"scale":true,"beta_initializer":{"class_name":"Zeros","config":{}},"gamma_initializer":{"class_name":"Ones","config":{}},"moving_mean_initializer":{"class_name":"Zeros","config":{}},"moving_variance_initializer":{"class_name":"Ones","config":{}},"beta_regularizer":null,"gamma_regularizer":null,"beta_constraint":null,"gamma_constraint":null,"name":"expanded_conv_10-expand-BatchNorm","trainable":true},"inbound_nodes":[[["expanded_conv_10-expand",0,0,{}]]]},{"name":"expanded_conv_10-depthwise-Action1","class_name":null,"config":{"name":"expanded_conv_10-depthwise-Action1","trainable":true},"inbound_nodes":[[["expanded_conv_10-expand-BatchNorm",0,0,{}]]]},{"name":"expanded_conv_10-depthwise","class_name":"DepthwiseConv2D","config":{"kernel_size":[3,3],"strides":[1,1],"padding":"same","data_format":"channels_last","dilation_rate":[1,1],"activation":"linear","use_bias":false,"bias_initializer":{"class_name":"Zeros","config":{}},"bias_regularizer":null,"activity_regularizer":null,"bias_constraint":null,"name":"expanded_conv_10-depthwise","trainable":true,"depth_multiplier":1,"depthwise_initializer":{"class_name":"VarianceScaling","config":{"scale":1,"mode":"fan_avg","distribution":"normal","seed":null}},"depthwise_regularizer":null,"depthwise_constraint":null},"inbound_nodes":[[["expanded_conv_10-depthwise-Action1",0,0,{}]]]},{"name":"expanded_conv_10-depthwise-BatchNorm","class_name":"BatchNormalization","config":{"axis":-1,"momentum":0.99,"epsilon":0.001,"center":true,"scale":true,"beta_initializer":{"class_name":"Zeros","config":{}},"gamma_initializer":{"class_name":"Ones","config":{}},"moving_mean_initializer":{"class_name":"Zeros","config":{}},"moving_variance_initializer":{"class_name":"Ones","config":{}},"beta_regularizer":null,"gamma_regularizer":null,"beta_constraint":null,"gamma_constraint":null,"name":"expanded_conv_10-depthwise-BatchNorm","trainable":true},"inbound_nodes":[[["expanded_conv_10-depthwise",0,0,{}]]]},{"name":"expanded_conv_10-depthwise-Action2","class_name":null,"config":{"name":"expanded_conv_10-depthwise-Action2","trainable":true},"inbound_nodes":[[["expanded_conv_10-depthwise-BatchNorm",0,0,{}]]]},{"name":"expanded_conv_10-squeeze_excite-AvgPool","class_name":"GlobalAveragePooling2D","config":{"data_format":"channels_last","name":"expanded_conv_10-squeeze_excite-AvgPool","trainable":true},"inbound_nodes":[[["expanded_conv_10-depthwise-Action2",0,0,{}]]]},{"name":"reshape_Reshape5","class_name":"Reshape","config":{"target_shape":[1,1,480],"name":"reshape_Reshape5","trainable":true},"inbound_nodes":[[["expanded_conv_10-squeeze_excite-AvgPool",0,0,{}]]]},{"name":"expanded_conv_10-squeeze_excite-Conv","class_name":"Conv2D","config":{"filters":120,"kernel_initializer":{"class_name":"VarianceScaling","config":{"scale":1,"mode":"fan_avg","distribution":"normal","seed":null}},"kernel_regularizer":null,"kernel_constraint":null,"kernel_size":[1,1],"strides":[1,1],"padding":"same","data_format":"channels_last","dilation_rate":[1,1],"activation":"linear","use_bias":true,"bias_initializer":{"class_name":"Zeros","config":{}},"bias_regularizer":null,"activity_regularizer":null,"bias_constraint":null,"name":"expanded_conv_10-squeeze_excite-Conv","trainable":true},"inbound_nodes":[[["reshape_Reshape5",0,0,{}]]]},{"name":"expanded_conv_10-squeeze_excite-Relu","class_name":"ReLU","config":{"max_value":null,"name":"expanded_conv_10-squeeze_excite-Relu","trainable":true},"inbound_nodes":[[["expanded_conv_10-squeeze_excite-Conv",0,0,{}]]]},{"name":"expanded_conv_10-squeeze_excite-Conv_1","class_name":"Conv2D","config":{"filters":480,"kernel_initializer":{"class_name":"VarianceScaling","config":{"scale":1,"mode":"fan_avg","distribution":"normal","seed":null}},"kernel_regularizer":null,"kernel_constraint":null,"kernel_size":[1,1],"strides":[1,1],"padding":"same","data_format":"channels_last","dilation_rate":[1,1],"activation":"linear","use_bias":true,"bias_initializer":{"class_name":"Zeros","config":{}},"bias_regularizer":null,"activity_regularizer":null,"bias_constraint":null,"name":"expanded_conv_10-squeeze_excite-Conv_1","trainable":true},"inbound_nodes":[[["expanded_conv_10-squeeze_excite-Relu",0,0,{}]]]},{"name":"expanded_conv_10-squeeze_excite-HardSigmoid","class_name":null,"config":{"name":"expanded_conv_10-squeeze_excite-HardSigmoid","trainable":true},"inbound_nodes":[[["expanded_conv_10-squeeze_excite-Conv_1",0,0,{}]]]},{"name":"expanded_conv_10-squeeze_excite-Mul","class_name":"Multiply","config":{"name":"expanded_conv_10-squeeze_excite-Mul","trainable":true},"inbound_nodes":[[["expanded_conv_10-depthwise-Action2",0,0,{}],["expanded_conv_10-squeeze_excite-HardSigmoid",0,0,{}]]]},{"name":"expanded_conv_10-project","class_name":"Conv2D","config":{"filters":112,"kernel_initializer":{"class_name":"VarianceScaling","config":{"scale":1,"mode":"fan_avg","distribution":"normal","seed":null}},"kernel_regularizer":null,"kernel_constraint":null,"kernel_size":[1,1],"strides":[1,1],"padding":"same","data_format":"channels_last","dilation_rate":[1,1],"activation":"linear","use_bias":false,"bias_initializer":{"class_name":"Zeros","config":{}},"bias_regularizer":null,"activity_regularizer":null,"bias_constraint":null,"name":"expanded_conv_10-project","trainable":true},"inbound_nodes":[[["expanded_conv_10-squeeze_excite-Mul",0,0,{}]]]},{"name":"expanded_conv_10-project-BatchNorm","class_name":"BatchNormalization","config":{"axis":-1,"momentum":0.99,"epsilon":0.001,"center":true,"scale":true,"beta_initializer":{"class_name":"Zeros","config":{}},"gamma_initializer":{"class_name":"Ones","config":{}},"moving_mean_initializer":{"class_name":"Zeros","config":{}},"moving_variance_initializer":{"class_name":"Ones","config":{}},"beta_regularizer":null,"gamma_regularizer":null,"beta_constraint":null,"gamma_constraint":null,"name":"expanded_conv_10-project-BatchNorm","trainable":true},"inbound_nodes":[[["expanded_conv_10-project",0,0,{}]]]},{"name":"expanded_conv_11-expand","class_name":"Conv2D","config":{"filters":672,"kernel_initializer":{"class_name":"VarianceScaling","config":{"scale":1,"mode":"fan_avg","distribution":"normal","seed":null}},"kernel_regularizer":{"class_name":"L1L2","config":{"l1":0,"l2":0.01}},"kernel_constraint":null,"kernel_size":[1,1],"strides":[1,1],"padding":"same","data_format":"channels_last","dilation_rate":[1,1],"activation":"linear","use_bias":false,"bias_initializer":{"class_name":"Zeros","config":{}},"bias_regularizer":null,"activity_regularizer":null,"bias_constraint":null,"name":"expanded_conv_11-expand","trainable":true},"inbound_nodes":[[["expanded_conv_10-project-BatchNorm",0,0,{}]]]},{"name":"expanded_conv_11-expand-BatchNorm","class_name":"BatchNormalization","config":{"axis":-1,"momentum":0.99,"epsilon":0.001,"center":true,"scale":true,"beta_initializer":{"class_name":"Zeros","config":{}},"gamma_initializer":{"class_name":"Ones","config":{}},"moving_mean_initializer":{"class_name":"Zeros","config":{}},"moving_variance_initializer":{"class_name":"Ones","config":{}},"beta_regularizer":null,"gamma_regularizer":null,"beta_constraint":null,"gamma_constraint":null,"name":"expanded_conv_11-expand-BatchNorm","trainable":true},"inbound_nodes":[[["expanded_conv_11-expand",0,0,{}]]]},{"name":"expanded_conv_11-depthwise-Action1","class_name":null,"config":{"name":"expanded_conv_11-depthwise-Action1","trainable":true},"inbound_nodes":[[["expanded_conv_11-expand-BatchNorm",0,0,{}]]]},{"name":"expanded_conv_11-depthwise","class_name":"DepthwiseConv2D","config":{"kernel_size":[3,3],"strides":[1,1],"padding":"same","data_format":"channels_last","dilation_rate":[1,1],"activation":"linear","use_bias":false,"bias_initializer":{"class_name":"Zeros","config":{}},"bias_regularizer":null,"activity_regularizer":null,"bias_constraint":null,"name":"expanded_conv_11-depthwise","trainable":true,"depth_multiplier":1,"depthwise_initializer":{"class_name":"VarianceScaling","config":{"scale":1,"mode":"fan_avg","distribution":"normal","seed":null}},"depthwise_regularizer":null,"depthwise_constraint":null},"inbound_nodes":[[["expanded_conv_11-depthwise-Action1",0,0,{}]]]},{"name":"expanded_conv_11-depthwise-BatchNorm","class_name":"BatchNormalization","config":{"axis":-1,"momentum":0.99,"epsilon":0.001,"center":true,"scale":true,"beta_initializer":{"class_name":"Zeros","config":{}},"gamma_initializer":{"class_name":"Ones","config":{}},"moving_mean_initializer":{"class_name":"Zeros","config":{}},"moving_variance_initializer":{"class_name":"Ones","config":{}},"beta_regularizer":null,"gamma_regularizer":null,"beta_constraint":null,"gamma_constraint":null,"name":"expanded_conv_11-depthwise-BatchNorm","trainable":true},"inbound_nodes":[[["expanded_conv_11-depthwise",0,0,{}]]]},{"name":"expanded_conv_11-depthwise-Action2","class_name":null,"config":{"name":"expanded_conv_11-depthwise-Action2","trainable":true},"inbound_nodes":[[["expanded_conv_11-depthwise-BatchNorm",0,0,{}]]]},{"name":"expanded_conv_11-squeeze_excite-AvgPool","class_name":"GlobalAveragePooling2D","config":{"data_format":"channels_last","name":"expanded_conv_11-squeeze_excite-AvgPool","trainable":true},"inbound_nodes":[[["expanded_conv_11-depthwise-Action2",0,0,{}]]]},{"name":"reshape_Reshape6","class_name":"Reshape","config":{"target_shape":[1,1,672],"name":"reshape_Reshape6","trainable":true},"inbound_nodes":[[["expanded_conv_11-squeeze_excite-AvgPool",0,0,{}]]]},{"name":"expanded_conv_11-squeeze_excite-Conv","class_name":"Conv2D","config":{"filters":168,"kernel_initializer":{"class_name":"VarianceScaling","config":{"scale":1,"mode":"fan_avg","distribution":"normal","seed":null}},"kernel_regularizer":null,"kernel_constraint":null,"kernel_size":[1,1],"strides":[1,1],"padding":"same","data_format":"channels_last","dilation_rate":[1,1],"activation":"linear","use_bias":true,"bias_initializer":{"class_name":"Zeros","config":{}},"bias_regularizer":null,"activity_regularizer":null,"bias_constraint":null,"name":"expanded_conv_11-squeeze_excite-Conv","trainable":true},"inbound_nodes":[[["reshape_Reshape6",0,0,{}]]]},{"name":"expanded_conv_11-squeeze_excite-Relu","class_name":"ReLU","config":{"max_value":null,"name":"expanded_conv_11-squeeze_excite-Relu","trainable":true},"inbound_nodes":[[["expanded_conv_11-squeeze_excite-Conv",0,0,{}]]]},{"name":"expanded_conv_11-squeeze_excite-Conv_1","class_name":"Conv2D","config":{"filters":672,"kernel_initializer":{"class_name":"VarianceScaling","config":{"scale":1,"mode":"fan_avg","distribution":"normal","seed":null}},"kernel_regularizer":null,"kernel_constraint":null,"kernel_size":[1,1],"strides":[1,1],"padding":"same","data_format":"channels_last","dilation_rate":[1,1],"activation":"linear","use_bias":true,"bias_initializer":{"class_name":"Zeros","config":{}},"bias_regularizer":null,"activity_regularizer":null,"bias_constraint":null,"name":"expanded_conv_11-squeeze_excite-Conv_1","trainable":true},"inbound_nodes":[[["expanded_conv_11-squeeze_excite-Relu",0,0,{}]]]},{"name":"expanded_conv_11-squeeze_excite-HardSigmoid","class_name":null,"config":{"name":"expanded_conv_11-squeeze_excite-HardSigmoid","trainable":true},"inbound_nodes":[[["expanded_conv_11-squeeze_excite-Conv_1",0,0,{}]]]},{"name":"expanded_conv_11-squeeze_excite-Mul","class_name":"Multiply","config":{"name":"expanded_conv_11-squeeze_excite-Mul","trainable":true},"inbound_nodes":[[["expanded_conv_11-depthwise-Action2",0,0,{}],["expanded_conv_11-squeeze_excite-HardSigmoid",0,0,{}]]]},{"name":"expanded_conv_11-project","class_name":"Conv2D","config":{"filters":112,"kernel_initializer":{"class_name":"VarianceScaling","config":{"scale":1,"mode":"fan_avg","distribution":"normal","seed":null}},"kernel_regularizer":null,"kernel_constraint":null,"kernel_size":[1,1],"strides":[1,1],"padding":"same","data_format":"channels_last","dilation_rate":[1,1],"activation":"linear","use_bias":false,"bias_initializer":{"class_name":"Zeros","config":{}},"bias_regularizer":null,"activity_regularizer":null,"bias_constraint":null,"name":"expanded_conv_11-project","trainable":true},"inbound_nodes":[[["expanded_conv_11-squeeze_excite-Mul",0,0,{}]]]},{"name":"expanded_conv_11-project-BatchNorm","class_name":"BatchNormalization","config":{"axis":-1,"momentum":0.99,"epsilon":0.001,"center":true,"scale":true,"beta_initializer":{"class_name":"Zeros","config":{}},"gamma_initializer":{"class_name":"Ones","config":{}},"moving_mean_initializer":{"class_name":"Zeros","config":{}},"moving_variance_initializer":{"class_name":"Ones","config":{}},"beta_regularizer":null,"gamma_regularizer":null,"beta_constraint":null,"gamma_constraint":null,"name":"expanded_conv_11-project-BatchNorm","trainable":true},"inbound_nodes":[[["expanded_conv_11-project",0,0,{}]]]},{"name":"expanded_conv_11-Add","class_name":"Add","config":{"name":"expanded_conv_11-Add","trainable":true},"inbound_nodes":[[["expanded_conv_11-project-BatchNorm",0,0,{}],["expanded_conv_10-project-BatchNorm",0,0,{}]]]},{"name":"expanded_conv_12-expand","class_name":"Conv2D","config":{"filters":672,"kernel_initializer":{"class_name":"VarianceScaling","config":{"scale":1,"mode":"fan_avg","distribution":"normal","seed":null}},"kernel_regularizer":{"class_name":"L1L2","config":{"l1":0,"l2":0.01}},"kernel_constraint":null,"kernel_size":[1,1],"strides":[1,1],"padding":"same","data_format":"channels_last","dilation_rate":[1,1],"activation":"linear","use_bias":false,"bias_initializer":{"class_name":"Zeros","config":{}},"bias_regularizer":null,"activity_regularizer":null,"bias_constraint":null,"name":"expanded_conv_12-expand","trainable":true},"inbound_nodes":[[["expanded_conv_11-Add",0,0,{}]]]},{"name":"expanded_conv_12-expand-BatchNorm","class_name":"BatchNormalization","config":{"axis":-1,"momentum":0.99,"epsilon":0.001,"center":true,"scale":true,"beta_initializer":{"class_name":"Zeros","config":{}},"gamma_initializer":{"class_name":"Ones","config":{}},"moving_mean_initializer":{"class_name":"Zeros","config":{}},"moving_variance_initializer":{"class_name":"Ones","config":{}},"beta_regularizer":null,"gamma_regularizer":null,"beta_constraint":null,"gamma_constraint":null,"name":"expanded_conv_12-expand-BatchNorm","trainable":true},"inbound_nodes":[[["expanded_conv_12-expand",0,0,{}]]]},{"name":"expanded_conv_12-depthwise-Action1","class_name":null,"config":{"name":"expanded_conv_12-depthwise-Action1","trainable":true},"inbound_nodes":[[["expanded_conv_12-expand-BatchNorm",0,0,{}]]]},{"name":"expanded_conv_12-depthwise-pad","class_name":"ZeroPadding2D","config":{"padding":[[2.5,2.5],[1.5,2.5]],"data_format":"channels_last","name":"expanded_conv_12-depthwise-pad","trainable":true},"inbound_nodes":[[["expanded_conv_12-depthwise-Action1",0,0,{}]]]},{"name":"expanded_conv_12-depthwise","class_name":"DepthwiseConv2D","config":{"kernel_size":[5,5],"strides":[2,2],"padding":"same","data_format":"channels_last","dilation_rate":[1,1],"activation":"linear","use_bias":false,"bias_initializer":{"class_name":"Zeros","config":{}},"bias_regularizer":null,"activity_regularizer":null,"bias_constraint":null,"name":"expanded_conv_12-depthwise","trainable":true,"depth_multiplier":1,"depthwise_initializer":{"class_name":"VarianceScaling","config":{"scale":1,"mode":"fan_avg","distribution":"normal","seed":null}},"depthwise_regularizer":null,"depthwise_constraint":null},"inbound_nodes":[[["expanded_conv_12-depthwise-pad",0,0,{}]]]},{"name":"expanded_conv_12-depthwise-BatchNorm","class_name":"BatchNormalization","config":{"axis":-1,"momentum":0.99,"epsilon":0.001,"center":true,"scale":true,"beta_initializer":{"class_name":"Zeros","config":{}},"gamma_initializer":{"class_name":"Ones","config":{}},"moving_mean_initializer":{"class_name":"Zeros","config":{}},"moving_variance_initializer":{"class_name":"Ones","config":{}},"beta_regularizer":null,"gamma_regularizer":null,"beta_constraint":null,"gamma_constraint":null,"name":"expanded_conv_12-depthwise-BatchNorm","trainable":true},"inbound_nodes":[[["expanded_conv_12-depthwise",0,0,{}]]]},{"name":"expanded_conv_12-depthwise-Action2","class_name":null,"config":{"name":"expanded_conv_12-depthwise-Action2","trainable":true},"inbound_nodes":[[["expanded_conv_12-depthwise-BatchNorm",0,0,{}]]]},{"name":"expanded_conv_12-squeeze_excite-AvgPool","class_name":"GlobalAveragePooling2D","config":{"data_format":"channels_last","name":"expanded_conv_12-squeeze_excite-AvgPool","trainable":true},"inbound_nodes":[[["expanded_conv_12-depthwise-Action2",0,0,{}]]]},{"name":"reshape_Reshape7","class_name":"Reshape","config":{"target_shape":[1,1,672],"name":"reshape_Reshape7","trainable":true},"inbound_nodes":[[["expanded_conv_12-squeeze_excite-AvgPool",0,0,{}]]]},{"name":"expanded_conv_12-squeeze_excite-Conv","class_name":"Conv2D","config":{"filters":168,"kernel_initializer":{"class_name":"VarianceScaling","config":{"scale":1,"mode":"fan_avg","distribution":"normal","seed":null}},"kernel_regularizer":null,"kernel_constraint":null,"kernel_size":[1,1],"strides":[1,1],"padding":"same","data_format":"channels_last","dilation_rate":[1,1],"activation":"linear","use_bias":true,"bias_initializer":{"class_name":"Zeros","config":{}},"bias_regularizer":null,"activity_regularizer":null,"bias_constraint":null,"name":"expanded_conv_12-squeeze_excite-Conv","trainable":true},"inbound_nodes":[[["reshape_Reshape7",0,0,{}]]]},{"name":"expanded_conv_12-squeeze_excite-Relu","class_name":"ReLU","config":{"max_value":null,"name":"expanded_conv_12-squeeze_excite-Relu","trainable":true},"inbound_nodes":[[["expanded_conv_12-squeeze_excite-Conv",0,0,{}]]]},{"name":"expanded_conv_12-squeeze_excite-Conv_1","class_name":"Conv2D","config":{"filters":672,"kernel_initializer":{"class_name":"VarianceScaling","config":{"scale":1,"mode":"fan_avg","distribution":"normal","seed":null}},"kernel_regularizer":null,"kernel_constraint":null,"kernel_size":[1,1],"strides":[1,1],"padding":"same","data_format":"channels_last","dilation_rate":[1,1],"activation":"linear","use_bias":true,"bias_initializer":{"class_name":"Zeros","config":{}},"bias_regularizer":null,"activity_regularizer":null,"bias_constraint":null,"name":"expanded_conv_12-squeeze_excite-Conv_1","trainable":true},"inbound_nodes":[[["expanded_conv_12-squeeze_excite-Relu",0,0,{}]]]},{"name":"expanded_conv_12-squeeze_excite-HardSigmoid","class_name":null,"config":{"name":"expanded_conv_12-squeeze_excite-HardSigmoid","trainable":true},"inbound_nodes":[[["expanded_conv_12-squeeze_excite-Conv_1",0,0,{}]]]},{"name":"expanded_conv_12-squeeze_excite-Mul","class_name":"Multiply","config":{"name":"expanded_conv_12-squeeze_excite-Mul","trainable":true},"inbound_nodes":[[["expanded_conv_12-depthwise-Action2",0,0,{}],["expanded_conv_12-squeeze_excite-HardSigmoid",0,0,{}]]]},{"name":"expanded_conv_12-project","class_name":"Conv2D","config":{"filters":160,"kernel_initializer":{"class_name":"VarianceScaling","config":{"scale":1,"mode":"fan_avg","distribution":"normal","seed":null}},"kernel_regularizer":null,"kernel_constraint":null,"kernel_size":[1,1],"strides":[1,1],"padding":"same","data_format":"channels_last","dilation_rate":[1,1],"activation":"linear","use_bias":false,"bias_initializer":{"class_name":"Zeros","config":{}},"bias_regularizer":null,"activity_regularizer":null,"bias_constraint":null,"name":"expanded_conv_12-project","trainable":true},"inbound_nodes":[[["expanded_conv_12-squeeze_excite-Mul",0,0,{}]]]},{"name":"expanded_conv_12-project-BatchNorm","class_name":"BatchNormalization","config":{"axis":-1,"momentum":0.99,"epsilon":0.001,"center":true,"scale":true,"beta_initializer":{"class_name":"Zeros","config":{}},"gamma_initializer":{"class_name":"Ones","config":{}},"moving_mean_initializer":{"class_name":"Zeros","config":{}},"moving_variance_initializer":{"class_name":"Ones","config":{}},"beta_regularizer":null,"gamma_regularizer":null,"beta_constraint":null,"gamma_constraint":null,"name":"expanded_conv_12-project-BatchNorm","trainable":true},"inbound_nodes":[[["expanded_conv_12-project",0,0,{}]]]},{"name":"expanded_conv_13-expand","class_name":"Conv2D","config":{"filters":960,"kernel_initializer":{"class_name":"VarianceScaling","config":{"scale":1,"mode":"fan_avg","distribution":"normal","seed":null}},"kernel_regularizer":{"class_name":"L1L2","config":{"l1":0,"l2":0.01}},"kernel_constraint":null,"kernel_size":[1,1],"strides":[1,1],"padding":"same","data_format":"channels_last","dilation_rate":[1,1],"activation":"linear","use_bias":false,"bias_initializer":{"class_name":"Zeros","config":{}},"bias_regularizer":null,"activity_regularizer":null,"bias_constraint":null,"name":"expanded_conv_13-expand","trainable":true},"inbound_nodes":[[["expanded_conv_12-project-BatchNorm",0,0,{}]]]},{"name":"expanded_conv_13-expand-BatchNorm","class_name":"BatchNormalization","config":{"axis":-1,"momentum":0.99,"epsilon":0.001,"center":true,"scale":true,"beta_initializer":{"class_name":"Zeros","config":{}},"gamma_initializer":{"class_name":"Ones","config":{}},"moving_mean_initializer":{"class_name":"Zeros","config":{}},"moving_variance_initializer":{"class_name":"Ones","config":{}},"beta_regularizer":null,"gamma_regularizer":null,"beta_constraint":null,"gamma_constraint":null,"name":"expanded_conv_13-expand-BatchNorm","trainable":true},"inbound_nodes":[[["expanded_conv_13-expand",0,0,{}]]]},{"name":"expanded_conv_13-depthwise-Action1","class_name":null,"config":{"name":"expanded_conv_13-depthwise-Action1","trainable":true},"inbound_nodes":[[["expanded_conv_13-expand-BatchNorm",0,0,{}]]]},{"name":"expanded_conv_13-depthwise","class_name":"DepthwiseConv2D","config":{"kernel_size":[5,5],"strides":[1,1],"padding":"same","data_format":"channels_last","dilation_rate":[1,1],"activation":"linear","use_bias":false,"bias_initializer":{"class_name":"Zeros","config":{}},"bias_regularizer":null,"activity_regularizer":null,"bias_constraint":null,"name":"expanded_conv_13-depthwise","trainable":true,"depth_multiplier":1,"depthwise_initializer":{"class_name":"VarianceScaling","config":{"scale":1,"mode":"fan_avg","distribution":"normal","seed":null}},"depthwise_regularizer":null,"depthwise_constraint":null},"inbound_nodes":[[["expanded_conv_13-depthwise-Action1",0,0,{}]]]},{"name":"expanded_conv_13-depthwise-BatchNorm","class_name":"BatchNormalization","config":{"axis":-1,"momentum":0.99,"epsilon":0.001,"center":true,"scale":true,"beta_initializer":{"class_name":"Zeros","config":{}},"gamma_initializer":{"class_name":"Ones","config":{}},"moving_mean_initializer":{"class_name":"Zeros","config":{}},"moving_variance_initializer":{"class_name":"Ones","config":{}},"beta_regularizer":null,"gamma_regularizer":null,"beta_constraint":null,"gamma_constraint":null,"name":"expanded_conv_13-depthwise-BatchNorm","trainable":true},"inbound_nodes":[[["expanded_conv_13-depthwise",0,0,{}]]]},{"name":"expanded_conv_13-depthwise-Action2","class_name":null,"config":{"name":"expanded_conv_13-depthwise-Action2","trainable":true},"inbound_nodes":[[["expanded_conv_13-depthwise-BatchNorm",0,0,{}]]]},{"name":"expanded_conv_13-squeeze_excite-AvgPool","class_name":"GlobalAveragePooling2D","config":{"data_format":"channels_last","name":"expanded_conv_13-squeeze_excite-AvgPool","trainable":true},"inbound_nodes":[[["expanded_conv_13-depthwise-Action2",0,0,{}]]]},{"name":"reshape_Reshape8","class_name":"Reshape","config":{"target_shape":[1,1,960],"name":"reshape_Reshape8","trainable":true},"inbound_nodes":[[["expanded_conv_13-squeeze_excite-AvgPool",0,0,{}]]]},{"name":"expanded_conv_13-squeeze_excite-Conv","class_name":"Conv2D","config":{"filters":240,"kernel_initializer":{"class_name":"VarianceScaling","config":{"scale":1,"mode":"fan_avg","distribution":"normal","seed":null}},"kernel_regularizer":null,"kernel_constraint":null,"kernel_size":[1,1],"strides":[1,1],"padding":"same","data_format":"channels_last","dilation_rate":[1,1],"activation":"linear","use_bias":true,"bias_initializer":{"class_name":"Zeros","config":{}},"bias_regularizer":null,"activity_regularizer":null,"bias_constraint":null,"name":"expanded_conv_13-squeeze_excite-Conv","trainable":true},"inbound_nodes":[[["reshape_Reshape8",0,0,{}]]]},{"name":"expanded_conv_13-squeeze_excite-Relu","class_name":"ReLU","config":{"max_value":null,"name":"expanded_conv_13-squeeze_excite-Relu","trainable":true},"inbound_nodes":[[["expanded_conv_13-squeeze_excite-Conv",0,0,{}]]]},{"name":"expanded_conv_13-squeeze_excite-Conv_1","class_name":"Conv2D","config":{"filters":960,"kernel_initializer":{"class_name":"VarianceScaling","config":{"scale":1,"mode":"fan_avg","distribution":"normal","seed":null}},"kernel_regularizer":null,"kernel_constraint":null,"kernel_size":[1,1],"strides":[1,1],"padding":"same","data_format":"channels_last","dilation_rate":[1,1],"activation":"linear","use_bias":true,"bias_initializer":{"class_name":"Zeros","config":{}},"bias_regularizer":null,"activity_regularizer":null,"bias_constraint":null,"name":"expanded_conv_13-squeeze_excite-Conv_1","trainable":true},"inbound_nodes":[[["expanded_conv_13-squeeze_excite-Relu",0,0,{}]]]},{"name":"expanded_conv_13-squeeze_excite-HardSigmoid","class_name":null,"config":{"name":"expanded_conv_13-squeeze_excite-HardSigmoid","trainable":true},"inbound_nodes":[[["expanded_conv_13-squeeze_excite-Conv_1",0,0,{}]]]},{"name":"expanded_conv_13-squeeze_excite-Mul","class_name":"Multiply","config":{"name":"expanded_conv_13-squeeze_excite-Mul","trainable":true},"inbound_nodes":[[["expanded_conv_13-depthwise-Action2",0,0,{}],["expanded_conv_13-squeeze_excite-HardSigmoid",0,0,{}]]]},{"name":"expanded_conv_13-project","class_name":"Conv2D","config":{"filters":160,"kernel_initializer":{"class_name":"VarianceScaling","config":{"scale":1,"mode":"fan_avg","distribution":"normal","seed":null}},"kernel_regularizer":null,"kernel_constraint":null,"kernel_size":[1,1],"strides":[1,1],"padding":"same","data_format":"channels_last","dilation_rate":[1,1],"activation":"linear","use_bias":false,"bias_initializer":{"class_name":"Zeros","config":{}},"bias_regularizer":null,"activity_regularizer":null,"bias_constraint":null,"name":"expanded_conv_13-project","trainable":true},"inbound_nodes":[[["expanded_conv_13-squeeze_excite-Mul",0,0,{}]]]},{"name":"expanded_conv_13-project-BatchNorm","class_name":"BatchNormalization","config":{"axis":-1,"momentum":0.99,"epsilon":0.001,"center":true,"scale":true,"beta_initializer":{"class_name":"Zeros","config":{}},"gamma_initializer":{"class_name":"Ones","config":{}},"moving_mean_initializer":{"class_name":"Zeros","config":{}},"moving_variance_initializer":{"class_name":"Ones","config":{}},"beta_regularizer":null,"gamma_regularizer":null,"beta_constraint":null,"gamma_constraint":null,"name":"expanded_conv_13-project-BatchNorm","trainable":true},"inbound_nodes":[[["expanded_conv_13-project",0,0,{}]]]},{"name":"expanded_conv_13-Add","class_name":"Add","config":{"name":"expanded_conv_13-Add","trainable":true},"inbound_nodes":[[["expanded_conv_13-project-BatchNorm",0,0,{}],["expanded_conv_12-project-BatchNorm",0,0,{}]]]},{"name":"expanded_conv_14-expand","class_name":"Conv2D","config":{"filters":960,"kernel_initializer":{"class_name":"VarianceScaling","config":{"scale":1,"mode":"fan_avg","distribution":"normal","seed":null}},"kernel_regularizer":{"class_name":"L1L2","config":{"l1":0,"l2":0.01}},"kernel_constraint":null,"kernel_size":[1,1],"strides":[1,1],"padding":"same","data_format":"channels_last","dilation_rate":[1,1],"activation":"linear","use_bias":false,"bias_initializer":{"class_name":"Zeros","config":{}},"bias_regularizer":null,"activity_regularizer":null,"bias_constraint":null,"name":"expanded_conv_14-expand","trainable":true},"inbound_nodes":[[["expanded_conv_13-Add",0,0,{}]]]},{"name":"expanded_conv_14-expand-BatchNorm","class_name":"BatchNormalization","config":{"axis":-1,"momentum":0.99,"epsilon":0.001,"center":true,"scale":true,"beta_initializer":{"class_name":"Zeros","config":{}},"gamma_initializer":{"class_name":"Ones","config":{}},"moving_mean_initializer":{"class_name":"Zeros","config":{}},"moving_variance_initializer":{"class_name":"Ones","config":{}},"beta_regularizer":null,"gamma_regularizer":null,"beta_constraint":null,"gamma_constraint":null,"name":"expanded_conv_14-expand-BatchNorm","trainable":true},"inbound_nodes":[[["expanded_conv_14-expand",0,0,{}]]]},{"name":"expanded_conv_14-depthwise-Action1","class_name":null,"config":{"name":"expanded_conv_14-depthwise-Action1","trainable":true},"inbound_nodes":[[["expanded_conv_14-expand-BatchNorm",0,0,{}]]]},{"name":"expanded_conv_14-depthwise","class_name":"DepthwiseConv2D","config":{"kernel_size":[5,5],"strides":[1,1],"padding":"same","data_format":"channels_last","dilation_rate":[1,1],"activation":"linear","use_bias":false,"bias_initializer":{"class_name":"Zeros","config":{}},"bias_regularizer":null,"activity_regularizer":null,"bias_constraint":null,"name":"expanded_conv_14-depthwise","trainable":true,"depth_multiplier":1,"depthwise_initializer":{"class_name":"VarianceScaling","config":{"scale":1,"mode":"fan_avg","distribution":"normal","seed":null}},"depthwise_regularizer":null,"depthwise_constraint":null},"inbound_nodes":[[["expanded_conv_14-depthwise-Action1",0,0,{}]]]},{"name":"expanded_conv_14-depthwise-BatchNorm","class_name":"BatchNormalization","config":{"axis":-1,"momentum":0.99,"epsilon":0.001,"center":true,"scale":true,"beta_initializer":{"class_name":"Zeros","config":{}},"gamma_initializer":{"class_name":"Ones","config":{}},"moving_mean_initializer":{"class_name":"Zeros","config":{}},"moving_variance_initializer":{"class_name":"Ones","config":{}},"beta_regularizer":null,"gamma_regularizer":null,"beta_constraint":null,"gamma_constraint":null,"name":"expanded_conv_14-depthwise-BatchNorm","trainable":true},"inbound_nodes":[[["expanded_conv_14-depthwise",0,0,{}]]]},{"name":"expanded_conv_14-depthwise-Action2","class_name":null,"config":{"name":"expanded_conv_14-depthwise-Action2","trainable":true},"inbound_nodes":[[["expanded_conv_14-depthwise-BatchNorm",0,0,{}]]]},{"name":"expanded_conv_14-squeeze_excite-AvgPool","class_name":"GlobalAveragePooling2D","config":{"data_format":"channels_last","name":"expanded_conv_14-squeeze_excite-AvgPool","trainable":true},"inbound_nodes":[[["expanded_conv_14-depthwise-Action2",0,0,{}]]]},{"name":"reshape_Reshape9","class_name":"Reshape","config":{"target_shape":[1,1,960],"name":"reshape_Reshape9","trainable":true},"inbound_nodes":[[["expanded_conv_14-squeeze_excite-AvgPool",0,0,{}]]]},{"name":"expanded_conv_14-squeeze_excite-Conv","class_name":"Conv2D","config":{"filters":240,"kernel_initializer":{"class_name":"VarianceScaling","config":{"scale":1,"mode":"fan_avg","distribution":"normal","seed":null}},"kernel_regularizer":null,"kernel_constraint":null,"kernel_size":[1,1],"strides":[1,1],"padding":"same","data_format":"channels_last","dilation_rate":[1,1],"activation":"linear","use_bias":true,"bias_initializer":{"class_name":"Zeros","config":{}},"bias_regularizer":null,"activity_regularizer":null,"bias_constraint":null,"name":"expanded_conv_14-squeeze_excite-Conv","trainable":true},"inbound_nodes":[[["reshape_Reshape9",0,0,{}]]]},{"name":"expanded_conv_14-squeeze_excite-Relu","class_name":"ReLU","config":{"max_value":null,"name":"expanded_conv_14-squeeze_excite-Relu","trainable":true},"inbound_nodes":[[["expanded_conv_14-squeeze_excite-Conv",0,0,{}]]]},{"name":"expanded_conv_14-squeeze_excite-Conv_1","class_name":"Conv2D","config":{"filters":960,"kernel_initializer":{"class_name":"VarianceScaling","config":{"scale":1,"mode":"fan_avg","distribution":"normal","seed":null}},"kernel_regularizer":null,"kernel_constraint":null,"kernel_size":[1,1],"strides":[1,1],"padding":"same","data_format":"channels_last","dilation_rate":[1,1],"activation":"linear","use_bias":true,"bias_initializer":{"class_name":"Zeros","config":{}},"bias_regularizer":null,"activity_regularizer":null,"bias_constraint":null,"name":"expanded_conv_14-squeeze_excite-Conv_1","trainable":true},"inbound_nodes":[[["expanded_conv_14-squeeze_excite-Relu",0,0,{}]]]},{"name":"expanded_conv_14-squeeze_excite-HardSigmoid","class_name":null,"config":{"name":"expanded_conv_14-squeeze_excite-HardSigmoid","trainable":true},"inbound_nodes":[[["expanded_conv_14-squeeze_excite-Conv_1",0,0,{}]]]},{"name":"expanded_conv_14-squeeze_excite-Mul","class_name":"Multiply","config":{"name":"expanded_conv_14-squeeze_excite-Mul","trainable":true},"inbound_nodes":[[["expanded_conv_14-depthwise-Action2",0,0,{}],["expanded_conv_14-squeeze_excite-HardSigmoid",0,0,{}]]]},{"name":"expanded_conv_14-project","class_name":"Conv2D","config":{"filters":160,"kernel_initializer":{"class_name":"VarianceScaling","config":{"scale":1,"mode":"fan_avg","distribution":"normal","seed":null}},"kernel_regularizer":null,"kernel_constraint":null,"kernel_size":[1,1],"strides":[1,1],"padding":"same","data_format":"channels_last","dilation_rate":[1,1],"activation":"linear","use_bias":false,"bias_initializer":{"class_name":"Zeros","config":{}},"bias_regularizer":null,"activity_regularizer":null,"bias_constraint":null,"name":"expanded_conv_14-project","trainable":true},"inbound_nodes":[[["expanded_conv_14-squeeze_excite-Mul",0,0,{}]]]},{"name":"expanded_conv_14-project-BatchNorm","class_name":"BatchNormalization","config":{"axis":-1,"momentum":0.99,"epsilon":0.001,"center":true,"scale":true,"beta_initializer":{"class_name":"Zeros","config":{}},"gamma_initializer":{"class_name":"Ones","config":{}},"moving_mean_initializer":{"class_name":"Zeros","config":{}},"moving_variance_initializer":{"class_name":"Ones","config":{}},"beta_regularizer":null,"gamma_regularizer":null,"beta_constraint":null,"gamma_constraint":null,"name":"expanded_conv_14-project-BatchNorm","trainable":true},"inbound_nodes":[[["expanded_conv_14-project",0,0,{}]]]},{"name":"expanded_conv_14-Add","class_name":"Add","config":{"name":"expanded_conv_14-Add","trainable":true},"inbound_nodes":[[["expanded_conv_14-project-BatchNorm",0,0,{}],["expanded_conv_13-Add",0,0,{}]]]},{"name":"Conv_1","class_name":"Conv2D","config":{"filters":960,"kernel_initializer":{"class_name":"VarianceScaling","config":{"scale":1,"mode":"fan_avg","distribution":"normal","seed":null}},"kernel_regularizer":null,"kernel_constraint":null,"kernel_size":[1,1],"strides":[1,1],"padding":"same","data_format":"channels_last","dilation_rate":[1,1],"activation":"linear","use_bias":false,"bias_initializer":{"class_name":"Zeros","config":{}},"bias_regularizer":null,"activity_regularizer":null,"bias_constraint":null,"name":"Conv_1","trainable":true},"inbound_nodes":[[["expanded_conv_14-Add",0,0,{}]]]},{"name":"Conv_1-BatchNorm-1","class_name":"BatchNormalization","config":{"axis":-1,"momentum":0.99,"epsilon":0.001,"center":true,"scale":true,"beta_initializer":{"class_name":"Zeros","config":{}},"gamma_initializer":{"class_name":"Ones","config":{}},"moving_mean_initializer":{"class_name":"Zeros","config":{}},"moving_variance_initializer":{"class_name":"Ones","config":{}},"beta_regularizer":null,"gamma_regularizer":null,"beta_constraint":null,"gamma_constraint":null,"name":"Conv_1-BatchNorm-1","trainable":true},"inbound_nodes":[[["Conv_1",0,0,{}]]]},{"name":"Conv_1-BatchNorm-2","class_name":null,"config":{"name":"Conv_1-BatchNorm-2","trainable":true},"inbound_nodes":[[["Conv_1-BatchNorm-1",0,0,{}]]]},{"name":"global_average_pooling2d_GlobalAveragePooling2D1","class_name":"GlobalAveragePooling2D","config":{"data_format":"channels_last","name":"global_average_pooling2d_GlobalAveragePooling2D1","trainable":true},"inbound_nodes":[[["Conv_1-BatchNorm-2",0,0,{}]]]},{"name":"reshape_Reshape10","class_name":"Reshape","config":{"target_shape":[1,1,960],"name":"reshape_Reshape10","trainable":true},"inbound_nodes":[[["global_average_pooling2d_GlobalAveragePooling2D1",0,0,{}]]]},{"name":"Conv2-1","class_name":"Conv2D","config":{"filters":960,"kernel_initializer":{"class_name":"VarianceScaling","config":{"scale":1,"mode":"fan_avg","distribution":"normal","seed":null}},"kernel_regularizer":null,"kernel_constraint":null,"kernel_size":[1,1],"strides":[1,1],"padding":"same","data_format":"channels_last","dilation_rate":[1,1],"activation":"linear","use_bias":true,"bias_initializer":{"class_name":"Zeros","config":{}},"bias_regularizer":null,"activity_regularizer":null,"bias_constraint":null,"name":"Conv2-1","trainable":true},"inbound_nodes":[[["reshape_Reshape10",0,0,{}]]]},{"name":"Conv2-HardSwish","class_name":null,"config":{"name":"Conv2-HardSwish","trainable":true},"inbound_nodes":[[["Conv2-1",0,0,{}]]]},{"name":"Logits-Conv2d_1c_1x1","class_name":"Conv2D","config":{"filters":7,"kernel_initializer":{"class_name":"VarianceScaling","config":{"scale":1,"mode":"fan_avg","distribution":"normal","seed":null}},"kernel_regularizer":null,"kernel_constraint":null,"kernel_size":[1,1],"strides":[1,1],"padding":"same","data_format":"channels_last","dilation_rate":[1,1],"activation":"linear","use_bias":true,"bias_initializer":{"class_name":"Zeros","config":{}},"bias_regularizer":null,"activity_regularizer":null,"bias_constraint":null,"name":"Logits-Conv2d_1c_1x1","trainable":true},"inbound_nodes":[[["Conv2-HardSwish",0,0,{}]]]},{"name":"flatten_Flatten1","class_name":"Flatten","config":{"name":"flatten_Flatten1","trainable":true},"inbound_nodes":[[["Logits-Conv2d_1c_1x1",0,0,{}]]]},{"name":"Predictions","class_name":"Softmax","config":{"axis":1,"name":"Predictions","trainable":true},"inbound_nodes":[[["flatten_Flatten1",0,0,{}]]]}],"input_layers":[["input1",0,0]],"output_layers":[["Predictions",0,0]]},"keras_version":"tfjs-layers 4.17.0","backend":"tensor_flow.js"},"weightsManifest":[{"paths":["weights.bin"],"weights":[{"name":"Conv/kernel","shape":[3,3,3,16],"dtype":"float32"},{"name":"Conv-BatchNorm/gamma","shape":[16],"dtype":"float32"},{"name":"Conv-BatchNorm/beta","shape":[16],"dtype":"float32"},{"name":"expanded_conv-depthwise/depthwise_kernel","shape":[3,3,16,1],"dtype":"float32"},{"name":"expanded_conv-depthwise-BatchNorm/gamma","shape":[16],"dtype":"float32"},{"name":"expanded_conv-depthwise-BatchNorm/beta","shape":[16],"dtype":"float32"},{"name":"expanded_conv-project/kernel","shape":[1,1,16,16],"dtype":"float32"},{"name":"expanded_conv-project-BatchNorm/gamma","shape":[16],"dtype":"float32"},{"name":"expanded_conv-project-BatchNorm/beta","shape":[16],"dtype":"float32"},{"name":"expanded_conv_1-expand/kernel","shape":[1,1,16,64],"dtype":"float32"},{"name":"expanded_conv_1-expand-BatchNorm/gamma","shape":[64],"dtype":"float32"},{"name":"expanded_conv_1-expand-BatchNorm/beta","shape":[64],"dtype":"float32"},{"name":"expanded_conv_1-depthwise/depthwise_kernel","shape":[3,3,64,1],"dtype":"float32"},{"name":"expanded_conv_1-depthwise-BatchNorm/gamma","shape":[64],"dtype":"float32"},{"name":"expanded_conv_1-depthwise-BatchNorm/beta","shape":[64],"dtype":"float32"},{"name":"expanded_conv_1-project/kernel","shape":[1,1,64,24],"dtype":"float32"},{"name":"expanded_conv_1-project-BatchNorm/gamma","shape":[24],"dtype":"float32"},{"name":"expanded_conv_1-project-BatchNorm/beta","shape":[24],"dtype":"float32"},{"name":"expanded_conv_2-expand/kernel","shape":[1,1,24,72],"dtype":"float32"},{"name":"expanded_conv_2-expand-BatchNorm/gamma","shape":[72],"dtype":"float32"},{"name":"expanded_conv_2-expand-BatchNorm/beta","shape":[72],"dtype":"float32"},{"name":"expanded_conv_2-depthwise/depthwise_kernel","shape":[3,3,72,1],"dtype":"float32"},{"name":"expanded_conv_2-depthwise-BatchNorm/gamma","shape":[72],"dtype":"float32"},{"name":"expanded_conv_2-depthwise-BatchNorm/beta","shape":[72],"dtype":"float32"},{"name":"expanded_conv_2-project/kernel","shape":[1,1,72,24],"dtype":"float32"},{"name":"expanded_conv_2-project-BatchNorm/gamma","shape":[24],"dtype":"float32"},{"name":"expanded_conv_2-project-BatchNorm/beta","shape":[24],"dtype":"float32"},{"name":"expanded_conv_3-expand/kernel","shape":[1,1,24,72],"dtype":"float32"},{"name":"expanded_conv_3-expand-BatchNorm/gamma","shape":[72],"dtype":"float32"},{"name":"expanded_conv_3-expand-BatchNorm/beta","shape":[72],"dtype":"float32"},{"name":"expanded_conv_3-depthwise/depthwise_kernel","shape":[5,5,72,1],"dtype":"float32"},{"name":"expanded_conv_3-depthwise-BatchNorm/gamma","shape":[72],"dtype":"float32"},{"name":"expanded_conv_3-depthwise-BatchNorm/beta","shape":[72],"dtype":"float32"},{"name":"expanded_conv_3-squeeze_excite-Conv/kernel","shape":[1,1,72,24],"dtype":"float32"},{"name":"expanded_conv_3-squeeze_excite-Conv/bias","shape":[24],"dtype":"float32"},{"name":"expanded_conv_3-squeeze_excite-Conv_1/kernel","shape":[1,1,24,72],"dtype":"float32"},{"name":"expanded_conv_3-squeeze_excite-Conv_1/bias","shape":[72],"dtype":"float32"},{"name":"expanded_conv_3-project/kernel","shape":[1,1,72,40],"dtype":"float32"},{"name":"expanded_conv_3-project-BatchNorm/gamma","shape":[40],"dtype":"float32"},{"name":"expanded_conv_3-project-BatchNorm/beta","shape":[40],"dtype":"float32"},{"name":"expanded_conv_4-expand/kernel","shape":[1,1,40,120],"dtype":"float32"},{"name":"expanded_conv_4-expand-BatchNorm/gamma","shape":[120],"dtype":"float32"},{"name":"expanded_conv_4-expand-BatchNorm/beta","shape":[120],"dtype":"float32"},{"name":"expanded_conv_4-depthwise/depthwise_kernel","shape":[5,5,120,1],"dtype":"float32"},{"name":"expanded_conv_4-depthwise-BatchNorm/gamma","shape":[120],"dtype":"float32"},{"name":"expanded_conv_4-depthwise-BatchNorm/beta","shape":[120],"dtype":"float32"},{"name":"expanded_conv_4-squeeze_excite-Conv/kernel","shape":[1,1,120,32],"dtype":"float32"},{"name":"expanded_conv_4-squeeze_excite-Conv/bias","shape":[32],"dtype":"float32"},{"name":"expanded_conv_4-squeeze_excite-Conv_1/kernel","shape":[1,1,32,120],"dtype":"float32"},{"name":"expanded_conv_4-squeeze_excite-Conv_1/bias","shape":[120],"dtype":"float32"},{"name":"expanded_conv_4-project/kernel","shape":[1,1,120,40],"dtype":"float32"},{"name":"expanded_conv_4-project-BatchNorm/gamma","shape":[40],"dtype":"float32"},{"name":"expanded_conv_4-project-BatchNorm/beta","shape":[40],"dtype":"float32"},{"name":"expanded_conv_5-expand/kernel","shape":[1,1,40,120],"dtype":"float32"},{"name":"expanded_conv_5-expand-BatchNorm/gamma","shape":[120],"dtype":"float32"},{"name":"expanded_conv_5-expand-BatchNorm/beta","shape":[120],"dtype":"float32"},{"name":"expanded_conv_5-depthwise/depthwise_kernel","shape":[5,5,120,1],"dtype":"float32"},{"name":"expanded_conv_5-depthwise-BatchNorm/gamma","shape":[120],"dtype":"float32"},{"name":"expanded_conv_5-depthwise-BatchNorm/beta","shape":[120],"dtype":"float32"},{"name":"expanded_conv_5-squeeze_excite-Conv/kernel","shape":[1,1,120,32],"dtype":"float32"},{"name":"expanded_conv_5-squeeze_excite-Conv/bias","shape":[32],"dtype":"float32"},{"name":"expanded_conv_5-squeeze_excite-Conv_1/kernel","shape":[1,1,32,120],"dtype":"float32"},{"name":"expanded_conv_5-squeeze_excite-Conv_1/bias","shape":[120],"dtype":"float32"},{"name":"expanded_conv_5-project/kernel","shape":[1,1,120,40],"dtype":"float32"},{"name":"expanded_conv_5-project-BatchNorm/gamma","shape":[40],"dtype":"float32"},{"name":"expanded_conv_5-project-BatchNorm/beta","shape":[40],"dtype":"float32"},{"name":"expanded_conv_6-expand/kernel","shape":[1,1,40,240],"dtype":"float32"},{"name":"expanded_conv_6-expand-BatchNorm/gamma","shape":[240],"dtype":"float32"},{"name":"expanded_conv_6-expand-BatchNorm/beta","shape":[240],"dtype":"float32"},{"name":"expanded_conv_6-depthwise/depthwise_kernel","shape":[3,3,240,1],"dtype":"float32"},{"name":"expanded_conv_6-depthwise-BatchNorm/gamma","shape":[240],"dtype":"float32"},{"name":"expanded_conv_6-depthwise-BatchNorm/beta","shape":[240],"dtype":"float32"},{"name":"expanded_conv_6-project/kernel","shape":[1,1,240,80],"dtype":"float32"},{"name":"expanded_conv_6-project-BatchNorm/gamma","shape":[80],"dtype":"float32"},{"name":"expanded_conv_6-project-BatchNorm/beta","shape":[80],"dtype":"float32"},{"name":"expanded_conv_7-expand/kernel","shape":[1,1,80,200],"dtype":"float32"},{"name":"expanded_conv_7-expand-BatchNorm/gamma","shape":[200],"dtype":"float32"},{"name":"expanded_conv_7-expand-BatchNorm/beta","shape":[200],"dtype":"float32"},{"name":"expanded_conv_7-depthwise/depthwise_kernel","shape":[3,3,200,1],"dtype":"float32"},{"name":"expanded_conv_7-depthwise-BatchNorm/gamma","shape":[200],"dtype":"float32"},{"name":"expanded_conv_7-depthwise-BatchNorm/beta","shape":[200],"dtype":"float32"},{"name":"expanded_conv_7-project/kernel","shape":[1,1,200,80],"dtype":"float32"},{"name":"expanded_conv_7-project-BatchNorm/gamma","shape":[80],"dtype":"float32"},{"name":"expanded_conv_7-project-BatchNorm/beta","shape":[80],"dtype":"float32"},{"name":"expanded_conv_8-expand/kernel","shape":[1,1,80,184],"dtype":"float32"},{"name":"expanded_conv_8-expand-BatchNorm/gamma","shape":[184],"dtype":"float32"},{"name":"expanded_conv_8-expand-BatchNorm/beta","shape":[184],"dtype":"float32"},{"name":"expanded_conv_8-depthwise/depthwise_kernel","shape":[3,3,184,1],"dtype":"float32"},{"name":"expanded_conv_8-depthwise-BatchNorm/gamma","shape":[184],"dtype":"float32"},{"name":"expanded_conv_8-depthwise-BatchNorm/beta","shape":[184],"dtype":"float32"},{"name":"expanded_conv_8-project/kernel","shape":[1,1,184,80],"dtype":"float32"},{"name":"expanded_conv_8-project-BatchNorm/gamma","shape":[80],"dtype":"float32"},{"name":"expanded_conv_8-project-BatchNorm/beta","shape":[80],"dtype":"float32"},{"name":"expanded_conv_9-expand/kernel","shape":[1,1,80,184],"dtype":"float32"},{"name":"expanded_conv_9-expand-BatchNorm/gamma","shape":[184],"dtype":"float32"},{"name":"expanded_conv_9-expand-BatchNorm/beta","shape":[184],"dtype":"float32"},{"name":"expanded_conv_9-depthwise/depthwise_kernel","shape":[3,3,184,1],"dtype":"float32"},{"name":"expanded_conv_9-depthwise-BatchNorm/gamma","shape":[184],"dtype":"float32"},{"name":"expanded_conv_9-depthwise-BatchNorm/beta","shape":[184],"dtype":"float32"},{"name":"expanded_conv_9-squeeze_excite-Conv/kernel","shape":[1,1,184,48],"dtype":"float32"},{"name":"expanded_conv_9-squeeze_excite-Conv/bias","shape":[48],"dtype":"float32"},{"name":"expanded_conv_9-squeeze_excite-Conv_1/kernel","shape":[1,1,48,184],"dtype":"float32"},{"name":"expanded_conv_9-squeeze_excite-Conv_1/bias","shape":[184],"dtype":"float32"},{"name":"expanded_conv_9-project/kernel","shape":[1,1,184,80],"dtype":"float32"},{"name":"expanded_conv_9-project-BatchNorm/gamma","shape":[80],"dtype":"float32"},{"name":"expanded_conv_9-project-BatchNorm/beta","shape":[80],"dtype":"float32"},{"name":"expanded_conv_10-expand/kernel","shape":[1,1,80,480],"dtype":"float32"},{"name":"expanded_conv_10-expand-BatchNorm/gamma","shape":[480],"dtype":"float32"},{"name":"expanded_conv_10-expand-BatchNorm/beta","shape":[480],"dtype":"float32"},{"name":"expanded_conv_10-depthwise/depthwise_kernel","shape":[3,3,480,1],"dtype":"float32"},{"name":"expanded_conv_10-depthwise-BatchNorm/gamma","shape":[480],"dtype":"float32"},{"name":"expanded_conv_10-depthwise-BatchNorm/beta","shape":[480],"dtype":"float32"},{"name":"expanded_conv_10-squeeze_excite-Conv/kernel","shape":[1,1,480,120],"dtype":"float32"},{"name":"expanded_conv_10-squeeze_excite-Conv/bias","shape":[120],"dtype":"float32"},{"name":"expanded_conv_10-squeeze_excite-Conv_1/kernel","shape":[1,1,120,480],"dtype":"float32"},{"name":"expanded_conv_10-squeeze_excite-Conv_1/bias","shape":[480],"dtype":"float32"},{"name":"expanded_conv_10-project/kernel","shape":[1,1,480,112],"dtype":"float32"},{"name":"expanded_conv_10-project-BatchNorm/gamma","shape":[112],"dtype":"float32"},{"name":"expanded_conv_10-project-BatchNorm/beta","shape":[112],"dtype":"float32"},{"name":"expanded_conv_11-expand/kernel","shape":[1,1,112,672],"dtype":"float32"},{"name":"expanded_conv_11-expand-BatchNorm/gamma","shape":[672],"dtype":"float32"},{"name":"expanded_conv_11-expand-BatchNorm/beta","shape":[672],"dtype":"float32"},{"name":"expanded_conv_11-depthwise/depthwise_kernel","shape":[3,3,672,1],"dtype":"float32"},{"name":"expanded_conv_11-depthwise-BatchNorm/gamma","shape":[672],"dtype":"float32"},{"name":"expanded_conv_11-depthwise-BatchNorm/beta","shape":[672],"dtype":"float32"},{"name":"expanded_conv_11-squeeze_excite-Conv/kernel","shape":[1,1,672,168],"dtype":"float32"},{"name":"expanded_conv_11-squeeze_excite-Conv/bias","shape":[168],"dtype":"float32"},{"name":"expanded_conv_11-squeeze_excite-Conv_1/kernel","shape":[1,1,168,672],"dtype":"float32"},{"name":"expanded_conv_11-squeeze_excite-Conv_1/bias","shape":[672],"dtype":"float32"},{"name":"expanded_conv_11-project/kernel","shape":[1,1,672,112],"dtype":"float32"},{"name":"expanded_conv_11-project-BatchNorm/gamma","shape":[112],"dtype":"float32"},{"name":"expanded_conv_11-project-BatchNorm/beta","shape":[112],"dtype":"float32"},{"name":"expanded_conv_12-expand/kernel","shape":[1,1,112,672],"dtype":"float32"},{"name":"expanded_conv_12-expand-BatchNorm/gamma","shape":[672],"dtype":"float32"},{"name":"expanded_conv_12-expand-BatchNorm/beta","shape":[672],"dtype":"float32"},{"name":"expanded_conv_12-depthwise/depthwise_kernel","shape":[5,5,672,1],"dtype":"float32"},{"name":"expanded_conv_12-depthwise-BatchNorm/gamma","shape":[672],"dtype":"float32"},{"name":"expanded_conv_12-depthwise-BatchNorm/beta","shape":[672],"dtype":"float32"},{"name":"expanded_conv_12-squeeze_excite-Conv/kernel","shape":[1,1,672,168],"dtype":"float32"},{"name":"expanded_conv_12-squeeze_excite-Conv/bias","shape":[168],"dtype":"float32"},{"name":"expanded_conv_12-squeeze_excite-Conv_1/kernel","shape":[1,1,168,672],"dtype":"float32"},{"name":"expanded_conv_12-squeeze_excite-Conv_1/bias","shape":[672],"dtype":"float32"},{"name":"expanded_conv_12-project/kernel","shape":[1,1,672,160],"dtype":"float32"},{"name":"expanded_conv_12-project-BatchNorm/gamma","shape":[160],"dtype":"float32"},{"name":"expanded_conv_12-project-BatchNorm/beta","shape":[160],"dtype":"float32"},{"name":"expanded_conv_13-expand/kernel","shape":[1,1,160,960],"dtype":"float32"},{"name":"expanded_conv_13-expand-BatchNorm/gamma","shape":[960],"dtype":"float32"},{"name":"expanded_conv_13-expand-BatchNorm/beta","shape":[960],"dtype":"float32"},{"name":"expanded_conv_13-depthwise/depthwise_kernel","shape":[5,5,960,1],"dtype":"float32"},{"name":"expanded_conv_13-depthwise-BatchNorm/gamma","shape":[960],"dtype":"float32"},{"name":"expanded_conv_13-depthwise-BatchNorm/beta","shape":[960],"dtype":"float32"},{"name":"expanded_conv_13-squeeze_excite-Conv/kernel","shape":[1,1,960,240],"dtype":"float32"},{"name":"expanded_conv_13-squeeze_excite-Conv/bias","shape":[240],"dtype":"float32"},{"name":"expanded_conv_13-squeeze_excite-Conv_1/kernel","shape":[1,1,240,960],"dtype":"float32"},{"name":"expanded_conv_13-squeeze_excite-Conv_1/bias","shape":[960],"dtype":"float32"},{"name":"expanded_conv_13-project/kernel","shape":[1,1,960,160],"dtype":"float32"},{"name":"expanded_conv_13-project-BatchNorm/gamma","shape":[160],"dtype":"float32"},{"name":"expanded_conv_13-project-BatchNorm/beta","shape":[160],"dtype":"float32"},{"name":"expanded_conv_14-expand/kernel","shape":[1,1,160,960],"dtype":"float32"},{"name":"expanded_conv_14-expand-BatchNorm/gamma","shape":[960],"dtype":"float32"},{"name":"expanded_conv_14-expand-BatchNorm/beta","shape":[960],"dtype":"float32"},{"name":"expanded_conv_14-depthwise/depthwise_kernel","shape":[5,5,960,1],"dtype":"float32"},{"name":"expanded_conv_14-depthwise-BatchNorm/gamma","shape":[960],"dtype":"float32"},{"name":"expanded_conv_14-depthwise-BatchNorm/beta","shape":[960],"dtype":"float32"},{"name":"expanded_conv_14-squeeze_excite-Conv/kernel","shape":[1,1,960,240],"dtype":"float32"},{"name":"expanded_conv_14-squeeze_excite-Conv/bias","shape":[240],"dtype":"float32"},{"name":"expanded_conv_14-squeeze_excite-Conv_1/kernel","shape":[1,1,240,960],"dtype":"float32"},{"name":"expanded_conv_14-squeeze_excite-Conv_1/bias","shape":[960],"dtype":"float32"},{"name":"expanded_conv_14-project/kernel","shape":[1,1,960,160],"dtype":"float32"},{"name":"expanded_conv_14-project-BatchNorm/gamma","shape":[160],"dtype":"float32"},{"name":"expanded_conv_14-project-BatchNorm/beta","shape":[160],"dtype":"float32"},{"name":"Conv_1/kernel","shape":[1,1,160,960],"dtype":"float32"},{"name":"Conv_1-BatchNorm-1/gamma","shape":[960],"dtype":"float32"},{"name":"Conv_1-BatchNorm-1/beta","shape":[960],"dtype":"float32"},{"name":"Conv2-1/kernel","shape":[1,1,960,960],"dtype":"float32"},{"name":"Conv2-1/bias","shape":[960],"dtype":"float32"},{"name":"Logits-Conv2d_1c_1x1/kernel","shape":[1,1,960,7],"dtype":"float32"},{"name":"Logits-Conv2d_1c_1x1/bias","shape":[7],"dtype":"float32"},{"name":"Conv-BatchNorm/moving_mean","shape":[16],"dtype":"float32"},{"name":"Conv-BatchNorm/moving_variance","shape":[16],"dtype":"float32"},{"name":"expanded_conv-depthwise-BatchNorm/moving_mean","shape":[16],"dtype":"float32"},{"name":"expanded_conv-depthwise-BatchNorm/moving_variance","shape":[16],"dtype":"float32"},{"name":"expanded_conv-project-BatchNorm/moving_mean","shape":[16],"dtype":"float32"},{"name":"expanded_conv-project-BatchNorm/moving_variance","shape":[16],"dtype":"float32"},{"name":"expanded_conv_1-expand-BatchNorm/moving_mean","shape":[64],"dtype":"float32"},{"name":"expanded_conv_1-expand-BatchNorm/moving_variance","shape":[64],"dtype":"float32"},{"name":"expanded_conv_1-depthwise-BatchNorm/moving_mean","shape":[64],"dtype":"float32"},{"name":"expanded_conv_1-depthwise-BatchNorm/moving_variance","shape":[64],"dtype":"float32"},{"name":"expanded_conv_1-project-BatchNorm/moving_mean","shape":[24],"dtype":"float32"},{"name":"expanded_conv_1-project-BatchNorm/moving_variance","shape":[24],"dtype":"float32"},{"name":"expanded_conv_2-expand-BatchNorm/moving_mean","shape":[72],"dtype":"float32"},{"name":"expanded_conv_2-expand-BatchNorm/moving_variance","shape":[72],"dtype":"float32"},{"name":"expanded_conv_2-depthwise-BatchNorm/moving_mean","shape":[72],"dtype":"float32"},{"name":"expanded_conv_2-depthwise-BatchNorm/moving_variance","shape":[72],"dtype":"float32"},{"name":"expanded_conv_2-project-BatchNorm/moving_mean","shape":[24],"dtype":"float32"},{"name":"expanded_conv_2-project-BatchNorm/moving_variance","shape":[24],"dtype":"float32"},{"name":"expanded_conv_3-expand-BatchNorm/moving_mean","shape":[72],"dtype":"float32"},{"name":"expanded_conv_3-expand-BatchNorm/moving_variance","shape":[72],"dtype":"float32"},{"name":"expanded_conv_3-depthwise-BatchNorm/moving_mean","shape":[72],"dtype":"float32"},{"name":"expanded_conv_3-depthwise-BatchNorm/moving_variance","shape":[72],"dtype":"float32"},{"name":"expanded_conv_3-project-BatchNorm/moving_mean","shape":[40],"dtype":"float32"},{"name":"expanded_conv_3-project-BatchNorm/moving_variance","shape":[40],"dtype":"float32"},{"name":"expanded_conv_4-expand-BatchNorm/moving_mean","shape":[120],"dtype":"float32"},{"name":"expanded_conv_4-expand-BatchNorm/moving_variance","shape":[120],"dtype":"float32"},{"name":"expanded_conv_4-depthwise-BatchNorm/moving_mean","shape":[120],"dtype":"float32"},{"name":"expanded_conv_4-depthwise-BatchNorm/moving_variance","shape":[120],"dtype":"float32"},{"name":"expanded_conv_4-project-BatchNorm/moving_mean","shape":[40],"dtype":"float32"},{"name":"expanded_conv_4-project-BatchNorm/moving_variance","shape":[40],"dtype":"float32"},{"name":"expanded_conv_5-expand-BatchNorm/moving_mean","shape":[120],"dtype":"float32"},{"name":"expanded_conv_5-expand-BatchNorm/moving_variance","shape":[120],"dtype":"float32"},{"name":"expanded_conv_5-depthwise-BatchNorm/moving_mean","shape":[120],"dtype":"float32"},{"name":"expanded_conv_5-depthwise-BatchNorm/moving_variance","shape":[120],"dtype":"float32"},{"name":"expanded_conv_5-project-BatchNorm/moving_mean","shape":[40],"dtype":"float32"},{"name":"expanded_conv_5-project-BatchNorm/moving_variance","shape":[40],"dtype":"float32"},{"name":"expanded_conv_6-expand-BatchNorm/moving_mean","shape":[240],"dtype":"float32"},{"name":"expanded_conv_6-expand-BatchNorm/moving_variance","shape":[240],"dtype":"float32"},{"name":"expanded_conv_6-depthwise-BatchNorm/moving_mean","shape":[240],"dtype":"float32"},{"name":"expanded_conv_6-depthwise-BatchNorm/moving_variance","shape":[240],"dtype":"float32"},{"name":"expanded_conv_6-project-BatchNorm/moving_mean","shape":[80],"dtype":"float32"},{"name":"expanded_conv_6-project-BatchNorm/moving_variance","shape":[80],"dtype":"float32"},{"name":"expanded_conv_7-expand-BatchNorm/moving_mean","shape":[200],"dtype":"float32"},{"name":"expanded_conv_7-expand-BatchNorm/moving_variance","shape":[200],"dtype":"float32"},{"name":"expanded_conv_7-depthwise-BatchNorm/moving_mean","shape":[200],"dtype":"float32"},{"name":"expanded_conv_7-depthwise-BatchNorm/moving_variance","shape":[200],"dtype":"float32"},{"name":"expanded_conv_7-project-BatchNorm/moving_mean","shape":[80],"dtype":"float32"},{"name":"expanded_conv_7-project-BatchNorm/moving_variance","shape":[80],"dtype":"float32"},{"name":"expanded_conv_8-expand-BatchNorm/moving_mean","shape":[184],"dtype":"float32"},{"name":"expanded_conv_8-expand-BatchNorm/moving_variance","shape":[184],"dtype":"float32"},{"name":"expanded_conv_8-depthwise-BatchNorm/moving_mean","shape":[184],"dtype":"float32"},{"name":"expanded_conv_8-depthwise-BatchNorm/moving_variance","shape":[184],"dtype":"float32"},{"name":"expanded_conv_8-project-BatchNorm/moving_mean","shape":[80],"dtype":"float32"},{"name":"expanded_conv_8-project-BatchNorm/moving_variance","shape":[80],"dtype":"float32"},{"name":"expanded_conv_9-expand-BatchNorm/moving_mean","shape":[184],"dtype":"float32"},{"name":"expanded_conv_9-expand-BatchNorm/moving_variance","shape":[184],"dtype":"float32"},{"name":"expanded_conv_9-depthwise-BatchNorm/moving_mean","shape":[184],"dtype":"float32"},{"name":"expanded_conv_9-depthwise-BatchNorm/moving_variance","shape":[184],"dtype":"float32"},{"name":"expanded_conv_9-project-BatchNorm/moving_mean","shape":[80],"dtype":"float32"},{"name":"expanded_conv_9-project-BatchNorm/moving_variance","shape":[80],"dtype":"float32"},{"name":"expanded_conv_10-expand-BatchNorm/moving_mean","shape":[480],"dtype":"float32"},{"name":"expanded_conv_10-expand-BatchNorm/moving_variance","shape":[480],"dtype":"float32"},{"name":"expanded_conv_10-depthwise-BatchNorm/moving_mean","shape":[480],"dtype":"float32"},{"name":"expanded_conv_10-depthwise-BatchNorm/moving_variance","shape":[480],"dtype":"float32"},{"name":"expanded_conv_10-project-BatchNorm/moving_mean","shape":[112],"dtype":"float32"},{"name":"expanded_conv_10-project-BatchNorm/moving_variance","shape":[112],"dtype":"float32"},{"name":"expanded_conv_11-expand-BatchNorm/moving_mean","shape":[672],"dtype":"float32"},{"name":"expanded_conv_11-expand-BatchNorm/moving_variance","shape":[672],"dtype":"float32"},{"name":"expanded_conv_11-depthwise-BatchNorm/moving_mean","shape":[672],"dtype":"float32"},{"name":"expanded_conv_11-depthwise-BatchNorm/moving_variance","shape":[672],"dtype":"float32"},{"name":"expanded_conv_11-project-BatchNorm/moving_mean","shape":[112],"dtype":"float32"},{"name":"expanded_conv_11-project-BatchNorm/moving_variance","shape":[112],"dtype":"float32"},{"name":"expanded_conv_12-expand-BatchNorm/moving_mean","shape":[672],"dtype":"float32"},{"name":"expanded_conv_12-expand-BatchNorm/moving_variance","shape":[672],"dtype":"float32"},{"name":"expanded_conv_12-depthwise-BatchNorm/moving_mean","shape":[672],"dtype":"float32"},{"name":"expanded_conv_12-depthwise-BatchNorm/moving_variance","shape":[672],"dtype":"float32"},{"name":"expanded_conv_12-project-BatchNorm/moving_mean","shape":[160],"dtype":"float32"},{"name":"expanded_conv_12-project-BatchNorm/moving_variance","shape":[160],"dtype":"float32"},{"name":"expanded_conv_13-expand-BatchNorm/moving_mean","shape":[960],"dtype":"float32"},{"name":"expanded_conv_13-expand-BatchNorm/moving_variance","shape":[960],"dtype":"float32"},{"name":"expanded_conv_13-depthwise-BatchNorm/moving_mean","shape":[960],"dtype":"float32"},{"name":"expanded_conv_13-depthwise-BatchNorm/moving_variance","shape":[960],"dtype":"float32"},{"name":"expanded_conv_13-project-BatchNorm/moving_mean","shape":[160],"dtype":"float32"},{"name":"expanded_conv_13-project-BatchNorm/moving_variance","shape":[160],"dtype":"float32"},{"name":"expanded_conv_14-expand-BatchNorm/moving_mean","shape":[960],"dtype":"float32"},{"name":"expanded_conv_14-expand-BatchNorm/moving_variance","shape":[960],"dtype":"float32"},{"name":"expanded_conv_14-depthwise-BatchNorm/moving_mean","shape":[960],"dtype":"float32"},{"name":"expanded_conv_14-depthwise-BatchNorm/moving_variance","shape":[960],"dtype":"float32"},{"name":"expanded_conv_14-project-BatchNorm/moving_mean","shape":[160],"dtype":"float32"},{"name":"expanded_conv_14-project-BatchNorm/moving_variance","shape":[160],"dtype":"float32"},{"name":"Conv_1-BatchNorm-1/moving_mean","shape":[960],"dtype":"float32"},{"name":"Conv_1-BatchNorm-1/moving_variance","shape":[960],"dtype":"float32"}]}],"format":"layers-model","generatedBy":"TensorFlow.js tfjs-layers v4.17.0","convertedBy":null}